model/substrate/GNN/canonical/GCN/model_best.pkl (torch, 953562 bytes, 16 tensors)

gnn.gnn_layers.0.graph_conv.weight f4 [74, 256]
00000000: c26f 3fbe 2b21 b0be 0292 0ebe ec2d 5dbe
00000010: 7ad6 0ebe 0c6b 5d3d e23c 19bf 943f a6bc
00000020: e144 15bf 5074 82bd 7902 0cbf 4a50 2bbe
00000030: 809f 84be 8655 08bf b9fa 32be 7ea5 4dbe
00000040: 182f ddbd 6315 dcbb 0ba8 9ebd c593 20bf
00000050: 164b 4f3e c75d 8a3d 01e7 f3bd 11b4 85bc
00000060: 0349 dbbd 4a2c 57bd dceb 563e 2388 13be
00000070: 29d7 73be b40e 1cbe 69b8 32be 7859 0bbc
00000080: 917c 54be ee68 62be 9a76 0fbc 13e6 29be
00000090: 89cb 9cbe 718b 38be 4942 5c3c a1d3 42be
000000a0: 370e ffbe 9472 26be 7875 b1bd df7d 47be
000000b0: c8b2 5dbe 1b45 f8be 93d6 01bb 37ad 073d
000000c0: dea9 ffbd fdf1 ffbd 46fa 09bd 069e ee3c
000000d0: d97e 6ebd aacd 853c b710 a13e 3d47 8abe
000000e0: 7a0b cebd 7fe6 80be 4d3d 1abf 6216 42be
000000f0: 90a6 5cbd 929d ab3d 3353 cdbd d9af 4b3d
00000100: 4be3 ecbc 3896 883e 8fcd 11be 81d2 e6bd
00000110: 1f84 a73e 60e9 2c3e ac27 07be 9dbb 65bd
00000120: a73f 3fbe bdad 8c3d a6ca bbba 3a88 183c
00000130: 7759 47bd ac0b 8abe 5ec4 ddbd c805 07be
00000140: b240 8bbe 45bb 173d 846c 40bc 9b02 51be
00000150: 53ec d8bb 3f07 5abf 4aa0 85bd c85c 97be
00000160: 5253 003e 74e1 68be 5ba7 8dbd bd73 bf3c
00000170: d37f 26bd 3b5a 8abd d817 babe 846e 3cbd
00000180: ff57 99bd 1773 5dbe 6e73 e0bd cf87 74bd
00000190: 5937 c03c b8c9 f9be dfd2 f4bd 82e9 a4be
000001a0: 88e2 4fbf be4f 4cbd fa7d 9cbf 20a2 1abd
000001b0: ee6a c23e bc5b 46be 144f ecbe 50aa 1c3e
000001c0: 3104 4fbe 406f bebd 85fd 1039 fc6d 70be
000001d0: 3b91 5fbe c8b0 fbbc 92f4 4e3d b8a3 e9bd
000001e0: a09b 6abd 5e5d babd 8e85 64be 3e3d 9ebd
000001f0: 038d 94bd e1d0 6a39 8525 53be a267 91be
00000200: 52a8 b13d 01bd cbbe 5234 f4bd bdf2 babd
00000210: 9ef2 5abd ba2d 9fbe f90e cd3d ee31 09be
00000220: 28f9 d0be 4748 58bd 9f40 a3bd 88d6 db3c
00000230: 10eb 683e 1f18 0dbd ba4a fe3b f863 32be
00000240: a705 77be b65a 5cbe 79ae 83bc 99b2 3b3d
00000250: 94e9 edbd fab2 73be 8231 79bd 6dbb 0dbe
00000260: 6d7e 84be c2bb 98bd 1a81 d43d 7ccb a8bd
00000270: 8681 20bd bb53 68be 412e 18be 5913 6fbe
00000280: 1d55 61be 1d1a 16be 8bb0 0abe 66c1 4fbd
00000290: 1e3b 28be f0d2 88bd 1a91 75bf 5a96 aebd
000002a0: 6662 7fbe f50b 2fbe a0d2 b9bc 49cc 15bd
000002b0: 2a55 563e 8941 59be e601 2abe 2b78 1bbd
000002c0: 1c04 86bf e002 66be 5375 903d a691 6abe
000002d0: 7d43 08bd 5318 8cbc 7f4d dc3d c25a 32be
000002e0: db88 0ebf d4c5 953e bd0c 06be e4ed 29bd
000002f0: 6b92 e3bd a496 c8bd 7a06 60bd 1270 1ebe
00000300: 3616 53be ae6f c6be 80e4 60be 2e91 f0be
00000310: 57cc fcbd e966 94bd 06d4 a6be 9806 573d
00000320: a6e9 f73d 9afc d53e 9b3d 62be 6400 85be
00000330: f000 4cbe a1e4 a23d 9c81 29be 0569 163c
00000340: 7b5c e7bb 8dfe 2ebe 491d 54bc d302 17be
00000350: e310 0c3b f318 21be 2cf3 02be 5d4e 10be
00000360: 82cb 53be 5ee3 cfbe 36bc 30bd 190c 6bbe
00000370: 2265 09be c16b 16be fabf d5bd 2a56 b5bd
00000380: 6138 74be 37fa 523d de1a 10be 83ef f93c
00000390: 57f5 f43c 1af1 20be e959 f2bc ca2e a3be
000003a0: 80dd 11be 5171 9dbd fd07 a2bd fb6d c0bd
000003b0: 2804 b8bd 864a 57be 5051 003e b7a8 a1bd
000003c0: b158 91bd 6bd7 86be aaf7 59bd a6ef 4ebe
000003d0: 1094 d4bd c368 bcbe 4121 c13d ef1c 55be
000003e0: fa5e 07be 5dda 45be eb3a 3cbe 65d4 cabd
000003f0: 33a8 89bd ecfd fdbd 93f2 4cbe 6a85 78bd
-0.18694976 -0.34400305 -0.13922885 -0.21599549 -0.13949004 0.054057166 -0.59858525 -0.020293988
-0.58308226 -0.06369841 -0.5469127 -0.16729847 -0.2590294 -0.532555 -0.17478456 -0.20082662
-0.10799998 -0.0067164167 -0.077468954 -0.6272548 0.20243487 0.06756168 -0.11909295 -0.016321214
-0.10707285 -0.05253247 0.2098841 -0.14407401 -0.23812546 -0.15239984 -0.1745316 -0.008505218
-0.20750643 -0.2211034 -0.008756304 -0.16591673 -0.30624035 -0.18021943 0.013443538 -0.19026043
-0.49815533 -0.16254646 -0.086649835 -0.1948161 -0.21650231 -0.48490223 -0.0019811734 0.033124175
-0.124835715 -0.124973275 -0.033685945 0.029128086 -0.05822644 0.01633342 0.31458065 -0.27007475
-0.10060783 -0.25175855 -0.6024979 -0.18953851 -0.053869784 0.083796635 -0.100256346 0.04972825
-0.028916975 0.26677108 -0.1423857 -0.11270619 0.32717988 0.168859 -0.13198727 -0.056087125
-0.18676625 0.068690754 -0.0014327362 0.009309823 -0.048669305 -0.2696203 -0.1082847 -0.13185799
-0.27197796 0.03704383 -0.011744622 -0.2041115 -0.006619969 -0.85167307 -0.06524713 -0.29562974
0.12531784 -0.22742254 -0.06916686 0.023370618 -0.040649246 -0.06755491 -0.36346316 -0.046003833
-0.07487487 -0.21625935 -0.109595165 -0.05969983 0.023463892 -0.48786712 -0.11954283 -0.32209402
-0.81205034 -0.049880736 -1.2225945 -0.03775227 0.37972206 -0.19370931 -0.46154082 0.15299344
-0.20216443 -0.09298563 0.00013827354 -0.23479456 -0.21832745 -0.030723944 0.05052621 -0.1140818
-0.05727732 -0.0909984 -0.22316572 -0.07726525 -0.07253458 0.00022393792 -0.20619781 -0.28399378
0.08674683 -0.39792636 -0.11924042 -0.0912833 -0.053454034 -0.31089574 0.100126214 -0.13397953
-0.4081509 -0.052803304 -0.0797131 0.026835695 0.22745919 -0.03444683 0.007760373 -0.17420948
-0.2412325 -0.21518978 -0.016074406 0.04582462 -0.11616817 -0.23798743 -0.06083823 -0.13841029
-0.25877705 -0.07457687 0.10376187 -0.082419366 -0.039186023 -0.2268819 -0.14861394 -0.23347224
-0.22005124 -0.14658399 -0.13543908 -0.05072155 -0.16428801 -0.06680858 -0.9592453 -0.08524771
-0.2493988 -0.17094405 -0.022683442 -0.036571775 0.20930925 -0.21216406 -0.16602287 -0.037956398
-1.0470004 -0.22462034 0.07053628 -0.22907123 -0.033267487 -0.017101442 0.10756969 -0.17417434
-0.55677575 0.29252493 -0.13090797 -0.041486636 -0.111119114 -0.097943574 -0.054693677 -0.15472439
-0.20613942 -0.3875708 -0.21962166 -0.46985763 -0.12343662 -0.07246191 -0.32583636 0.052496523
0.12105112 0.41794282 -0.22093813 -0.2597686 -0.19922233 0.07953764 -0.16553348 0.009180312
-0.007060585 -0.17089291 -0.012946435 -0.14747171 0.002137237 -0.15732174 -0.12788075 -0.14092393
-0.20683101 -0.40603155 -0.043148242 -0.22953834 -0.13417485 -0.14689542 -0.10437007 -0.08854325
-0.23849632 0.051508155 -0.14072749 0.030509716 0.029902143 -0.15716973 -0.029583888 -0.31871635
-0.14244652 -0.07687629 -0.0791168 -0.09395977 -0.08985168 -0.21024522 0.12531018 -0.07893508
-0.07096995 -0.26336226 -0.053214706 -0.20208606 -0.10379803 -0.36798677 0.09430171 -0.20811819
-0.13219824 -0.1932158 -0.1838185 -0.09903792 -0.067215346 -0.124019474 -0.2001441 -0.06067411

gnn.gnn_layers.0.graph_conv.bias f4 [256]
00000000: 2bab 94bd 544c f8be f58c 0cbe 2bfd ecbd
00000010: 0882 cfbd 4486 09be efc8 79be 36ab 01be
00000020: 1ae3 f43c 15bb 783d 404a 80be 5177 f0bd
00000030: 3b87 f9bb f35b 4a3b bb71 f6bd 1685 1bbe
00000040: 6055 09be f2cb 9bbd 3612 e2be f2fb 17bc
00000050: bd0d 02bd 745c dbbd 8b6f 22be f53b fabd
00000060: 8354 24bd 5546 fcbb 9ef5 35be 0828 d9bd
00000070: 7281 29be 1282 f1bd bc13 fcbd 2932 f4bd
00000080: eff8 f5bd 5fbd b63d 4669 cfbe 4404 f9bd
00000090: d1c4 11bb c859 85be b921 7cbd ac12 90be
000000a0: df36 c9be 8b55 1bbe 0de2 d7bd ecfb c6bd
000000b0: 8cfa f4bd 913f 2abe 1a9f d3bd e024 0dbc
000000c0: 68ff d13d 49f8 f5bd 4dfb febd 8c47 12bd
000000d0: f17c d9bd 8bfe 90bd 300a 18be 874e 61be
000000e0: 848b 09be 5b86 1cbe dd7e 8cbe 1b06 f5bd
000000f0: 470d 05be 8907 8dbd 3d5a babd 8147 93ba
00000100: b7b2 02bd 6c55 9e3d 4fa6 0ebe bd7f 7fbd
00000110: e70d 9fbd fb17 87bd 2f76 ff3c 8117 75bd
00000120: e7f6 1dbe bb65 83bd b75b f6bd fd46 e6bd
00000130: 0c1b 37be b32e 7d3e 5e62 f8bd 2098 21be
00000140: c386 1dbe 90ae c0be 41b5 e1bd ee97 98be
00000150: b8e6 76be 3f04 78bc 1f87 0dbe ec26 e0bc
00000160: c84a 16be 503f 2d3e 78a5 f4bd be92 9cbe
00000170: 64bf 06be 7468 1fbe 2847 e6bd 3471 0fbd
00000180: 8393 1dbe 89b6 8fbd d193 0ebf a220 e73d
00000190: 00aa 03be 43c7 69be d819 fabd 7348 61be
000001a0: 4527 15be 14ec abbd e9bd 82bd 9187 3f3d
000001b0: a4cd 97bd 0163 513e 1273 a8be aa7e 2abe
000001c0: 30fb f5bd 70fc 46be 221d cfbd 2962 f8bd
000001d0: 2f5a 41be b2fa 39bd 53f2 43be 0d34 0cbe
000001e0: fafc e9bd 3abc e7bd 578e 4f3d 691b 1dbe
000001f0: 3033 81be 3545 05be 7d52 d4be 3d7f 57be
00000200: a361 a53e c016 b6bd 23c4 78bd b4f8 f5bd
00000210: 8c75 96bd f064 7fbe 5d7f 95bd 8afe f5bd
00000220: 3811 a5be beb0 fabe 6b8d dcbd 27e6 5abe
00000230: 13f8 61be 36c6 f5bd bd8f f6bd 0404 2ebe
00000240: 4fff f0bd fadf dfbd 2886 18be 9599 05bd
00000250: ada9 ffbd e562 05be 1334 32be e983 07be
00000260: deeb 7ebe 5630 22be 85f7 25bd 8756 b9bd
00000270: 67a9 81be b6da e8bd 03f9 f5bd cddf c93d
00000280: 19e8 40be fffa f5bd a322 fabe c8ce 0cbd
00000290: 27cd 41be e5bc 01bd 2b7c db3d a48c 16be
000002a0: ca02 03be 4cfb 37be 06c2 31be 5cc2 7ebe
000002b0: e05e 923d b55b b3be f219 5ebe 882d 06be
000002c0: 0389 253e 30b5 2cbe 5b46 28be e3f9 f5bd
000002d0: c70d d9bd 4686 96bd 79a7 a63c a892 96be
000002e0: b339 ddbd 6a51 873e 770c 71be fb65 46bd
000002f0: 0000 0000 ba8b 2ebe 8b73 06be 6495 1abe
00000300: 2fa4 10bd 1066 adbd 93ee 02be 9934 56bd
00000310: 6de8 6fbd 1a69 f2bd d664 98be 9231 80bd
00000320: 7a71 7dbe 856b 19bd 210d fbbd 0186 2bbe
00000330: 3198 f9bd 78be 283b 2c6b f0bd 07e9 e2bd
00000340: 3c03 883d 7378 7dbe 4491 69bb d3e0 52be
00000350: 89c4 7dbd cb3d 06be 000c 04be 67fd 28be
00000360: e3cb 2abe a8ed 12bd 2466 24be 85fb f5bd
00000370: 68c7 ffbd 7e55 c2bd 9457 1dbe bfe6 efbd
00000380: bd67 f8bd 3e6d 84bd a100 d03d 8b5c 32bd
00000390: 6234 1dbe f088 11be 0522 34bd dfbb 90be
000003a0: ddc3 17be 572b 42be 2e20 20be a210 503d
000003b0: 6b51 4c3e d524 08be f63b c5bc 7a26 f3bd
000003c0: fed1 edbd f4a5 f0be a12d b7be ece4 d3be
000003d0: 0287 26be 0587 49be 7923 29be 107c c83d
000003e0: 53e2 06be 57a0 07be 1e6b edbd 4962 f5bd
000003f0: 7f90 dcbe 519f b0bd 9cef f5bd bae9 04bf
-0.0725921 -0.48495734 -0.13725646 -0.115717255 -0.10132223 -0.13430125 -0.24393056 -0.12662968
0.029893447 0.06072529 -0.25056648 -0.11741508 -0.0076149977 0.003087756 -0.12033411 -0.15187487
-0.13411474 -0.07607259 -0.4415452 -0.009276377 -0.031751383 -0.107109934 -0.15862863 -0.12218467
-0.04011966 -0.007698814 -0.17769477 -0.106033385 -0.16553286 -0.11792387 -0.123084515 -0.1192363
-0.12010371 0.089228384 -0.40510005 -0.12159017 -0.0022242556 -0.2604506 -0.061555598 -0.28139246
-0.39299676 -0.15169351 -0.10541163 -0.09716019 -0.119618505 -0.16625811 -0.103330806 -0.008614749
0.10253793 -0.12010247 -0.124502756 -0.035712764 -0.10619534 -0.070798 -0.14847636 -0.22002612
-0.13432127 -0.15285628 -0.2744054 -0.11964055 -0.12993346 -0.06886203 -0.09099243 -0.001123652
-0.031908717 0.07731137 -0.13930629 -0.06237768 -0.077663235 -0.06596371 0.031184284 -0.05983687
-0.15426217 -0.06415888 -0.12029212 -0.11244009 -0.17881411 0.24724846 -0.12128137 -0.15780687
-0.15383439 -0.3763318 -0.110208996 -0.29803413 -0.2411145 -0.015137731 -0.13821076 -0.02736231
-0.14676964 0.16918683 -0.11945623 -0.30580705 -0.13158947 -0.1556719 -0.11244041 -0.03502007
-0.15388303 -0.07017238 -0.556943 0.11285521 -0.12857819 -0.22829919 -0.122119606 -0.22000293
-0.14565761 -0.08394638 -0.06383879 0.046760146 -0.0741227 0.20447923 -0.32900292 -0.16649881
-0.12010801 -0.19432235 -0.101129785 -0.121280976 -0.18882059 -0.045405097 -0.19135408 -0.13691731
-0.114252046 -0.11315198 0.050672855 -0.15342487 -0.25234365 -0.13014682 -0.41469184 -0.21044631
0.32301053 -0.08891058 -0.060733926 -0.12010327 -0.07346639 -0.24940848 -0.07299683 -0.1201144
-0.322397 -0.4896297 -0.10769161 -0.21376859 -0.22067289 -0.12000696 -0.12039135 -0.1699372
-0.11767446 -0.10931392 -0.14894927 -0.03261717 -0.12483535 -0.13026007 -0.17402677 -0.13233913
-0.24894664 -0.15838751 -0.040519256 -0.09049707 -0.25324556 -0.11369841 -0.12010386 0.0985714
-0.18838538 -0.12010764 -0.4885455 -0.03437689 -0.18925916 -0.031674284 0.107170425 -0.14702088
-0.12794033 -0.17966956 -0.1735917 -0.2487883 0.07147002 -0.35030904 -0.21689585 -0.13103306
0.16165547 -0.16865993 -0.16433088 -0.12010553 -0.10598331 -0.073498294 0.020343529 -0.29408765
-0.10802021 0.26429302 -0.23539911 -0.0484371 0.0 -0.17045489 -0.13130014 -0.1509605
-0.035312828 -0.084667325 -0.12786321 -0.052296255 -0.058571268 -0.11836453 -0.29764432 -0.06259455
-0.24750319 -0.037456054 -0.122583635 -0.16750337 -0.12187231 0.0025748294 -0.117391914 -0.11079603
0.06641242 -0.24752979 -0.0035639564 -0.20593576 -0.06195501 -0.1310951 -0.12895203 -0.16502915
-0.16679339 -0.035871178 -0.16054589 -0.12010864 -0.124892056 -0.094889626 -0.1536544 -0.11713933
-0.121291615 -0.06466149 0.1015637 -0.043545287 -0.15352014 -0.14212394 -0.043977756 -0.28268334
-0.1482081 -0.18961845 -0.15637276 0.050797112 0.19952933 -0.132953 -0.024076443 -0.11872573
-0.116123185 -0.47001612 -0.35777 -0.4138559 -0.16262439 -0.19680412 -0.16517438 0.09789288
-0.13172273 -0.13244759 -0.115926966 -0.11981637 -0.43078992 -0.08624137 -0.120085925 -0.5191914

gnn.gnn_layers.0.res_connection.weight f4 [256, 74]
00000000: 84d5 6bbe ac1b 5a3e 4cea aebd b4ff debb
00000010: 5c99 e03b 00f0 98bd 1e03 8f3d 70ef 14bd
00000020: d695 c8b9 f7d2 c53d 0257 8dbd c0a1 e23d
00000030: 71c0 6f3d db48 92bd 5a7f 9fbd 614e cabd
00000040: cc10 923d 9b62 843b cc97 8abc 3c1e b53d
00000050: 64dd bbbc f67c 363d af72 aa3c 28d5 1ebc
00000060: 621d 81bd 2bdc 9ebd 7830 d9bd a1f9 b93d
00000070: d025 d83d b988 ea3d 8483 663d caf9 d7bc
00000080: fc19 8fbd 54a3 ebbd 02c3 37bd 47ca a3bd
00000090: 872c 03bd d5c1 a7bd 6cab aabd a449 3bbb
000000a0: 2f8d a6bd c72c 513c 6f6d 79bb 3d8a c53d
000000b0: f2b3 99bd b794 89bd 741e 9fbd 27e0 c43c
000000c0: 57a6 86bd db71 8d3d c451 db3d 6d50 bbbd
000000d0: b43b cd3d 89d7 92bd 1175 cd3d 2714 3fbe
000000e0: 39e7 a8bd de90 d0bd 5a3c 92bd 09c8 973c
000000f0: 062a 69bd b3ca 4fbc c2a4 2abc 68e0 78bd
00000100: 8556 8fbd 49d4 393d d181 c63d f01c 9b3d
00000110: ac02 9dbd c72b 59be ec74 d8bb 77e1 49be
00000120: 46dd c53d 75e8 db3d 4056 5d3e f984 fcbe
00000130: 684c dd3c ea40 bc3c e712 1fbe 9604 c83c
00000140: 9501 a53d 00b9 393d cd99 d5be f408 a03c
00000150: e79f 453d dc71 8f3d d2ec 80bd d129 2d3c
00000160: f69d 0d3d 00fc c0bd a23b 66bd d8dc 653c
00000170: efb0 63bd 5ac3 ed3d bfcb e83c 6b12 1fbd
00000180: afd4 e13c 1e94 4cbd f9dc 10bc 0dd4 003d
00000190: 4861 3d3d eda5 9d3c 99e4 dfb7 19da 47bd
000001a0: 3575 d3bd f9fd b23d 27f2 e1bc dace e5bd
000001b0: 7958 af3d 80aa bf3d 44bd e2bc 6f54 ea3a
000001c0: 7eef a1bd 7084 973d 9638 c5bd aa1f b23d
000001d0: 8ce8 213d 287e ca3d 99f7 953e c24a 10bf
000001e0: 6a46 4e3d af3c 16be b881 f93c 3686 d73c
000001f0: ceed ec3d e26b ee3c 3121 8cbd 6e74 63bd
00000200: bd5b 193e 3a57 163d 5be1 d9be 37ca c1bd
00000210: ce48 bebd 647e b83d 7fa6 91bd 41ad c0bd
00000220: 6662 3dbd f155 e2be 46c0 1f3e 0207 57bf
00000230: b76c a83d a60d e73d 0682 0e3e 81a0 2f3e
00000240: 710c 5abe b6ae d0be c142 043b 46b4 c83d
00000250: 8cba 8c3c 62d9 7cbd 6288 f63a 39a5 07bd
00000260: febe 173e 8ff6 e5bd 2d9f 2abe ac51 04be
00000270: 409c 73bd f7d8 953c 76ed 843c 500b e0bd
00000280: b546 fb3c 2359 8dbd 0d33 e5bd 8d7e a63c
00000290: 1b8c b2bb 39e2 b2bd 8491 253b 2f10 4d3d
000002a0: 7a31 e4bd 2c8f 82bb f3bd bf3d b326 cd3d
000002b0: a615 44bd 1ce7 31bd 7b61 7abd d8ad b5bd
000002c0: a015 67bd 5699 9b3d f4fb a73d 4b23 1bbd
000002d0: 68bb 703c 7be2 8ebd 6ae6 94bc 3949 983d
000002e0: 5852 943d 5fba a4bc a6fa bdbd 7e5b 85bb
000002f0: 9a2b 6abd 26c4 e13c 287a d93d 1873 383b
00000300: de1f 92be d106 a2bd c8b2 7d3e 031d f8bd
00000310: 2e33 e0ba 2104 d9bd 96d6 d93d 069c 8abd
00000320: 19b9 e83d 2628 f9bb ffb5 72be 5db2 403e
00000330: e19e f3bd a913 93bd d121 30bd 9f3a a6bd
00000340: e8a4 953d c729 253e 4aaa 573d 4661 3dbd
00000350: 027e 253e dd1d 15be 2ae9 dbbc 51a1 b23d
00000360: 5724 9cbd afa3 42be 62ae 293e 540a 22be
00000370: 0bc6 9dbd d9fe 57bd 5c57 1d3c 8343 09be
00000380: 97b6 98bd a2fc 4a3e da23 663e 1ba7 3bbd
00000390: 3dba 383b 23b6 473e 0406 49bd f3cf 1d3c
000003a0: e42f b3bd 84d4 d03c 30b9 a43d fcf1 023c
000003b0: abde 963c 426a b0bc 42a5 823b 979a 36bd
000003c0: d4d5 b53d 8e58 acbd 7987 603d ea68 9a3d
000003d0: 46f2 99ba afcc e9bd ae1c 563d a9c8 963d
000003e0: 9fe7 4dbc a408 a03d 37e4 3a3d ade5 d23c
000003f0: 0d51 dc3d 6464 64bd 26e3 973c b039 b3bd
-0.23030668 0.21299618 -0.08540782 -0.0068053845 0.0068542194 -0.07467651 0.069830164 -0.036361158
-0.0003825861 0.09659379 -0.06901361 0.110660076 0.058533136 -0.07142802 -0.07787962 -0.09878231
0.0713211 0.004040075 -0.016918086 0.088436574 -0.022932716 0.044552766 0.020806639 -0.009694375
-0.063044325 -0.077568375 -0.10604948 0.09080816 0.10554087 0.11451859 0.056277767 -0.026364226
-0.06987378 -0.11505762 -0.04486371 -0.07997566 -0.032024886 -0.081912674 -0.083334774 -0.0028577829
-0.081323974 0.012767023 -0.0038059612 0.096455075 -0.07505025 -0.06717818 -0.0776948 0.024032665
-0.065746956 0.06906482 0.10708955 -0.091461994 0.10021153 -0.07170016 0.10032094 -0.18660031
-0.08247227 -0.10183881 -0.071404174 0.018528001 -0.056924842 -0.012682605 -0.010415258 -0.060760885
-0.06998924 0.045368467 0.09692729 0.07573879 -0.07666525 -0.21208106 -0.006605735 -0.19714914
0.09661345 0.10737697 0.21614933 -0.493202 0.027013972 0.022980172 -0.15534554 0.02441625
0.080569424 0.045342445 -0.41718903 0.01953552 0.048248198 0.07004139 -0.0629517 0.010569052
0.03457447 -0.09423065 -0.056209214 0.014029704 -0.05558866 0.11609526 0.028417466 -0.038835924
0.027567236 -0.049945943 -0.0088417465 0.031452227 0.046235353 0.019244159 -2.669012e-05 -0.04879198
-0.1032509 0.08739848 -0.027581288 -0.112210944 0.08561797 0.09358692 -0.02767814 0.0017877946
-0.07907008 0.07398307 -0.096299335 0.08697446 0.039528415 0.09887344 0.29290465 -0.5636407
0.05036012 -0.14671586 0.030457363 0.026309114 0.11568795 0.029104177 -0.06842268 -0.055530958
0.14976402 0.03670428 -0.42554745 -0.094623975 -0.0929123 0.09008482 -0.07111835 -0.094080456
-0.04623642 -0.44206193 0.1560069 -0.8399507 0.08223861 0.112819 0.13916788 0.17151071
-0.21293809 -0.40758294 0.002018139 0.098000094 0.017178796 -0.06173075 0.0018808956 -0.033116553
0.14818951 -0.11228668 -0.16662283 -0.1292178 -0.059475183 0.018291933 0.016226511 -0.10939658
0.030673364 -0.06901767 -0.11191378 0.020324016 -0.005448831 -0.08734555 0.0025263736 0.050064262
-0.111422494 -0.0039843526 0.09362402 0.10017147 -0.047872208 -0.043433294 -0.06112812 -0.08871049
-0.056417108 0.07597606 0.08202353 -0.037875455 0.014693119 -0.069767915 -0.018176276 0.07435841
0.07242268 -0.0201084 -0.09276323 -0.0040697446 -0.057170488 0.027559351 0.106190026 0.0028144773
-0.28539938 -0.079114564 0.24775231 -0.121149085 -0.0017105096 -0.10596491 0.10636632 -0.0676804
0.113634296 -0.007603663 -0.23702239 0.1881804 -0.11895538 -0.07181484 -0.043001 -0.0811665
0.07306844 0.16129218 0.052652635 -0.046235345 0.1616135 -0.14562173 -0.02684458 0.08722175
-0.07624119 -0.19007753 0.16570428 -0.15824252 -0.07703789 -0.052733276 0.009603348 -0.1340466
-0.07456701 0.19822934 0.22474614 -0.04581366 0.0028187179 0.19503073 -0.049078003 0.0096320985
-0.08749369 0.02549196 0.08043134 0.007992264 0.018416723 -0.021535043 0.0039869854 -0.044581022
0.08878675 -0.08415328 0.054816697 0.07539542 -0.0011745177 -0.114159934 0.052273445 0.07362492
-0.01256743 0.07814148 0.0456278 0.025744284 0.10757647 -0.055759802 0.01854093 -0.087512374

gnn.gnn_layers.0.res_connection.bias f4 [256]
00000000: 98d7 41be 8a79 88bd f69e c1bd 5741 24be
00000010: 210d 0e3d a05d 08bc fadf b23d 78e4 87bd
00000020: b176 1ebe 37af 60be ec88 873d de10 933c
00000030: f29e bebc 3562 1abd bfa8 4bbe 47ac 26be
00000040: e3fb 18bd 164b a7be 580f a2be 4fdd 6c3e
00000050: 5413 28bc 9dec b63d 7b8c 23be 6fe1 31be
00000060: 25eb 04be 6170 02bd 1a2d 4cbe ddb3 cdbc
00000070: ebcd 88be db89 8ebe 2a25 0dbe 1d6b 8bbe
00000080: 50a6 febd 1162 b8bd 0c6d b6bd d976 43be
00000090: 2e04 86bd 8da9 72bd 0356 06be dfaf 89be
000000a0: acc1 04bd abf8 0c3b 3e4f 2fbc de4d 32bd
000000b0: 4e9d 80be 79ef 85bd ea13 83bd b472 d3bc
000000c0: 5425 3dbd e5b1 06bd a5ff 5ebe af8f 25be
000000d0: bd1b 7fbe 189c 7c3d 7de8 4ebe e3c3 613c
000000e0: 579f 043c 981e 71be a057 b53d 899f b7bd
000000f0: df06 1cbd 01f0 9dbc ec9e acbd 5cb6 8bbd
00000100: 68c3 923d 8597 3ebe 9b1e 8ebe 1e3a e2bc
00000110: 3c00 4fbd 91ff 8cbe 772c e23c 6762 663d
00000120: 0789 18be 3327 1fbf 946e 3ebe 80f5 1ebe
00000130: 073b 41be 4ffc 9bbd 564e b5bd 281e 983c
00000140: 28d3 8f3c 17ab 5cbc 997c 5abe a294 91bd
00000150: 0226 a5bd bd9a 383d 9833 86be 4fb4 27be
00000160: e7f0 94be 709f e0bc 56e3 6abd a2d5 9bbc
00000170: 7605 34be 50ec 0e3e 1096 03be e46d 9b3c
00000180: c590 5bbd 7167 38be 75ac 3fbd 5aa9 a6bb
00000190: 5773 9bbd 1118 10bd d605 553b 49db 263d
000001a0: d0da c5bd 6a91 fabc 6927 05be 61f2 09be
000001b0: 0b38 7bbe ff6f 75be 4232 35be 886b a4bd
000001c0: 9ed0 e9be dda0 42bd 1d44 7bbd 5bca db3c
000001d0: 3d6f 86be 877e a2be 0bcc 48bd 43b6 22bd
000001e0: 5733 41be 87e5 7ebe 0b40 01bf 2dee 51be
000001f0: 7c2f dcbd 9b5f 8fbc 2cc9 313d 3403 0bbc
00000200: 45c0 02be d8b8 87bd e707 dcbc 2f14 bcbc
00000210: 9dd1 58bd b40e 46bd 79a4 51be 05b9 45be
00000220: 1e91 d0bd b4bd 843e baf4 38be 4b80 2abe
00000230: 56ea b1bd a3ab debd 9aab d5bd 8c13 88bd
00000240: 68b3 6fbe fbfb dbbd 37d0 68be 2b1d 22bd
00000250: ed93 bcbd 99d8 c5bd 6e12 24be 7f0d d1bd
00000260: 0715 69bd d850 b4bd 697c 9bbd a00a 91be
00000270: dd3d 3fbe 1dbf 7bbe efbb 46be 2861 0ebe
00000280: 195f 67be bc6e 70be 8439 72bc c1ae 0dbe
00000290: ef38 2abe e0c8 3cbe c555 bfbe e13f 71be
000002a0: 99a0 2d3d 3eef 5fbe 53a2 95be 0041 20be
000002b0: a77c 35be 929f 533c eba2 7cbe 4404 47bd
000002c0: 0ae7 9abe c94f bd3c e8eb c1be 3664 93bd
000002d0: cb9a 38bd aabd 17be 8372 85bd 20a8 ec3d
000002e0: fe7a 28be 9b19 dbbc 7a40 b5bd d4c5 c43c
000002f0: e044 b7be 8e6b f9bd 0d10 3c3d 3fa8 a1bd
00000300: 4cde c2bb 2961 4fbd bca7 22be 37b4 a2bb
00000310: 3e8b 2ebe cae9 a3bd 72df ebbc d49e aabd
00000320: cda0 cebd a70c 3dbd 362d 5dbe c9a8 63be
00000330: 1bb5 6cbe 943f 23bd a3a9 20be c4b3 5ebe
00000340: 1bcd 22be 91e0 74be 1729 93be c903 6ebd
00000350: 723d bdbd 95da 14bd 6579 e1bd 6618 86be
00000360: 986d a7be 7148 43bd 82a5 b63c f78a 9bbd
00000370: e1d9 d5be 8609 a2bc c72f 76be a954 42be
00000380: b3c7 a2bd 6d91 60be 0f3a bf3c 0177 f5bd
00000390: d862 dfbd da9a b3be f77c a3bd e42e febd
000003a0: 47eb c7bd 7283 933c 9974 59be 8701 7e3d
000003b0: 5159 41be 015a 28be fc27 5ebe fd16 6abc
000003c0: ce47 ddbd d96e 3bbe ef96 1ebe eca3 7abe
000003d0: 190d 84be a762 7ebd 9e5b 30bc 8333 55be
000003e0: b857 36be e548 5cbe b3d2 09be d223 3fbe
000003f0: 8a3b b1bd 7939 f1bd 2afa 643e fc43 38be
-0.18929899 -0.06663807 -0.094541475 -0.1604055 0.03468049 -0.008323103 0.087341264 -0.06635374
-0.15474965 -0.21941839 0.06617913 0.017952379 -0.02326915 -0.037691314 -0.1988859 -0.16276656
-0.037349593 -0.32674474 -0.3165233 0.23131298 -0.010258514 0.08931849 -0.15971558 -0.17371152
-0.12980326 -0.031845454 -0.1993908 -0.02511018 -0.26719603 -0.2783955 -0.13783708 -0.27230158
-0.12434065 -0.0900308 -0.08907518 -0.19088306 -0.06543766 -0.059243727 -0.13118748 -0.26891991
-0.032411262 0.0021510522 -0.010700045 -0.04353129 -0.25120014 -0.065398164 -0.06400283 -0.02581153
-0.046178177 -0.032884497 -0.21777208 -0.16168092 -0.24912925 0.0616723 -0.20205875 0.013779613
0.00809463 -0.23546827 0.08854604 -0.08965976 -0.03809249 -0.019279482 -0.084287494 -0.06821892
0.07166177 -0.18612488 -0.27757725 -0.027615603 -0.050537333 -0.27538732 0.027609093 0.056246188
-0.14896022 -0.6216919 -0.1859687 -0.15523338 -0.18870173 -0.076164834 -0.08852832 0.018569067
0.017556742 -0.013468525 -0.21336593 -0.071084276 -0.0806389 0.045069445 -0.26211238 -0.16377376
-0.29090044 -0.027419776 -0.05734571 -0.019022767 -0.17580208 0.13957334 -0.12850213 0.018973298
-0.05360486 -0.1800821 -0.046795327 -0.0050861062 -0.07590359 -0.0351792 0.00325047 0.04073647
-0.09660876 -0.030586917 -0.13003315 -0.13471366 -0.24533097 -0.23968504 -0.17694953 -0.080283225
-0.45666975 -0.047516692 -0.061344255 0.026829889 -0.26256743 -0.31737158 -0.049022716 -0.0397246
-0.18867241 -0.24892245 -0.50488347 -0.20501013 -0.107512444 -0.017501643 0.043404743 -0.00848465
-0.12768658 -0.06627053 -0.026859237 -0.022958843 -0.052934278 -0.048353866 -0.20472898 -0.1930886
-0.10183929 0.25925982 -0.18062106 -0.16650502 -0.08687274 -0.10872581 -0.10433121 -0.06644353
-0.23408282 -0.10741421 -0.22735678 -0.039578598 -0.09207902 -0.09660453 -0.16022655 -0.10207652
-0.05690482 -0.08804482 -0.07592089 -0.2832842 -0.18675943 -0.24584623 -0.19407628 -0.1390425
-0.2259487 -0.23479742 -0.014784221 -0.13836195 -0.16623281 -0.18436003 -0.37370124 -0.23559524
0.042389486 -0.21868607 -0.29225406 -0.15649796 -0.17723332 0.0129164625 -0.24671523 -0.048588052
-0.30254394 0.023109334 -0.37875295 -0.07196848 -0.045069497 -0.14818445 -0.06515982 0.11555505
-0.16453168 -0.026745608 -0.088501886 0.024020113 -0.35794735 -0.121787176 0.045913745 -0.078934185
-0.00594691 -0.05062977 -0.15884298 -0.004965331 -0.17045304 -0.08003576 -0.02879307 -0.08331075
-0.10089264 -0.046154644 -0.21599278 -0.22232355 -0.23115961 -0.039855555 -0.15689711 -0.21748263
-0.15898554 -0.2391379 -0.28742287 -0.05810908 -0.092402354 -0.03634127 -0.11009482 -0.2619049
-0.327008 -0.047676507 0.022295717 -0.07594865 -0.4176779 -0.019779932 -0.24041663 -0.18977608
-0.07948246 -0.21930476 0.023343114 -0.11985589 -0.10907525 -0.3507908 -0.079828195 -0.124112874
-0.097616725 0.018007014 -0.21235885 0.062013175 -0.18881728 -0.16440584 -0.2169494 -0.014287707
-0.10804711 -0.18304004 -0.15487264 -0.24476594 -0.25791243 -0.0621058 -0.010764031 -0.20820431
-0.178069 -0.21512182 -0.13459282 -0.18666008 -0.08653934 -0.1177854 0.22361055 -0.17994684

gnn.gnn_layers.1.graph_conv.weight f4 [256, 256]
00000000: 6c63 0abe 1113 413e 986b b9bd ea31 5dbe
00000010: 4c12 20be e252 0cbe 7768 b33c 3fe7 0c3e
00000020: f1f0 5abe b11c b33d 6845 63be dd8e 1f3e
00000030: 9d9b 4f3d bf11 34be bed9 ce3d fa8b 593e
00000040: b03d bfbc 32b5 24be 519f e93d 1d8d 193e
00000050: 8a1e 153b 9311 3dbc 683d da3d 34ad 29be
00000060: 88f9 3e3e dda1 333c 2644 853d ae72 7dbd
00000070: 0b4d 98bd eb44 833d f3a8 77bf 8419 ad3d
00000080: f247 a0bd ddc3 fdbb 0a0f 83bd 43f0 cb3c
00000090: 23ca 813b 8d63 ed3d 53e0 3a3f 2248 e73d
000000a0: ee38 113f 8522 de3d 4b1e a8bd 5017 4f3c
000000b0: 3a28 acbe ad64 aebd 7d91 873e 3e17 8e3f
000000c0: ac1b 60be 2245 143e 8615 373e bed9 a8bd
000000d0: beb3 09be 6706 683c 2519 02be 34c3 13be
000000e0: 2fff 0fbe 027b 1dbe b907 1bbe 67f2 18be
000000f0: c183 813e 5ebd 6f3e b02f b43d 1e3c 7bbe
00000100: 8a5f 3ebe 2a6b 5b3e bbef d4bd 2928 813d
00000110: 23b5 653e 6b43 73bd d94c da3d 098f 6e3f
00000120: 7b5f 49be ee05 d9be d251 42be 945e c3bc
00000130: 9209 9fbd 93d6 10bf 681e 53be 1a10 53be
00000140: 4269 0bbe 728c 133f 04cc 0cbd 6de1 ebbe
00000150: 2973 273d 1cd3 80bd 2909 2f3f ae7a 093e
00000160: 5167 313d 1d2f ab3d 67a7 b73e 5c81 b1bd
00000170: 8ba6 3e3c 3d08 47be 9a79 87bd 557c e4be
00000180: 9066 593c ade5 57be 9acd 373b 7496 e13d
00000190: 7a6e a0bd dc6d 8abd 4bcf ba3e 7a11 163d
000001a0: 3729 f4bd d305 e63e 9495 293e 4fde 39be
000001b0: 0d01 fa3d acf6 36be cfdd 4fbe 0cdc dbbd
000001c0: 4d5c babd 621f 25be 91cc a23c cb45 a5bf
000001d0: 9da0 67be dbad 933d 905b afbd fe33 b03d
000001e0: 4bc4 8cbd ad78 87bd d06a dabd 8208 cb3d
000001f0: efe0 3c3e d2d3 7bbd ca65 54bf f596 27bd
00000200: f267 87bd a269 2bbe 2310 31be 031a 03be
00000210: 7f80 1abe fe26 0cbd 724e fabd 69d5 8cbd
00000220: dec5 16bd ea0a 083e 445c 38be 7cdb cb3d
00000230: 60aa 063e 267c 99bd 4769 1f3e 77de 853c
00000240: e9c9 f8bd 0004 1a3e c36a ed3d 91db 163e
00000250: 9d9d 6abd c5a8 d6bd 9e93 053d d00c cabd
00000260: 763c 643e 4ab6 5ebd 450d 58be 656a 813e
00000270: 7119 c4bf f264 943d 6a95 5f3f 193e 653c
00000280: 20de 68be fc9e 73bd b6ba 82bd 800c 19be
00000290: 1988 abbd c74d 8abe 32db 273d 18bc 50be
000002a0: 97dd 2b3d 5cdd d4bd 3e09 703e 3397 4cbe
000002b0: 6895 bd3d 60c9 333d f3c6 bebd 5ae3 64be
000002c0: 475e b63e 3957 2b3d 5901 db3e 27b4 52bd
000002d0: 9035 083e 83bb 7e3e 221c 633d 5589 5cbf
000002e0: 4be8 82bd 9774 b6bd 932b 0f3f 2f74 633e
000002f0: 5f2e 87bd 7dc4 c6bd 2696 5abe b7ec 2bbe
00000300: 918e 9a3c 1a13 c8bd a756 17be f63e c6bd
00000310: 4b65 21bd 611e 9fbd 531d 2d3e 3bdc 553c
00000320: ba8f 69be 90c9 21bd c3d3 bdbc a186 19be
00000330: 740d 053e 224b 5abf 49fa 39be 1748 c43e
00000340: aeba 02be afd2 9f3d 3ac3 353d bed6 24be
00000350: 0d2f 45be 3eb3 eebd faef 42be bfc9 533c
00000360: c480 d2bd c142 163e 1f88 993e 05b2 c03c
00000370: 6138 ad3d 0063 ad3d 05b5 b5be ae1e f03e
00000380: daa0 c63d ff0e 7f3e 0417 0fbe 5f4f d23d
00000390: ddb3 023e 0849 01be 31ad f63d d401 0dbf
000003a0: 82a2 2ebd a9d3 123e 23fc 46be 3d85 573e
000003b0: 86f7 94bd 485e 48bf b7da a1be 2700 d6be
000003c0: 7c1f d33d bde5 913d cad9 6cbe a3f4 ebbd
000003d0: c543 18be 3fa9 96bd bccd 05be 3b71 42bd
000003e0: 39b9 fa3b 5247 153c c44b a2bc c676 f9be
000003f0: 52b5 bbbd 162d 07bf ec04 4bbe 0134 f6bd
-0.13514489 0.1885493 -0.09053725 -0.21601072 -0.1563198 -0.13703492 0.021900399 0.13760088
-0.21380974 0.08745707 -0.22194445 0.15581842 0.050685514 -0.17584895 0.10100125 0.21244803
-0.023344845 -0.16084746 0.1140734 0.14995237 0.0022753798 -0.011539835 0.106562436 -0.16569978
0.18649876 0.010963884 0.06507139 -0.061876945 -0.0743657 0.064096294 -0.9674217 0.08452132
-0.078262225 -0.007744296 -0.06399353 0.02489484 0.003960864 0.115912534 0.7299854 0.11293055
0.5672749 0.10846428 -0.08208903 0.0126398355 -0.3362444 -0.08515296 0.26478186 1.1100843
-0.21885556 0.14479497 0.17879304 -0.08244656 -0.13447472 0.014161683 -0.12704904 -0.14429933
-0.14062189 -0.15378955 -0.15139665 -0.14936219 0.25295833 0.23412082 0.08798158 -0.24534652
-0.18591133 0.21427599 -0.103972875 0.06306488 0.2243238 -0.059390467 0.10659189 0.93187004
-0.19665329 -0.42387336 -0.18976524 -0.02384881 -0.07765497 -0.56577414 -0.20617068 -0.20611611
-0.13614371 0.5763618 -0.034374252 -0.46070424 0.04088131 -0.06290266 0.6837335 0.13425705
0.04331142 0.083585955 0.35869905 -0.086672515 0.011636387 -0.19436736 -0.066149905 -0.44626108
0.013269082 -0.21083708 0.0028046132 0.11015025 -0.07833572 -0.06759235 0.36486277 0.03663776
-0.119219236 0.4492632 0.16560966 -0.1815121 0.12207232 -0.17867535 -0.20299457 -0.1073533
-0.09099636 -0.16125253 0.019872935 -1.2911924 -0.22619863 0.07210895 -0.08562386 0.08603667
-0.068733774 -0.06614814 -0.10664904 0.09913732 0.1844518 -0.061481304 -0.8296782 -0.04091545
-0.06611623 -0.16739514 -0.17291312 -0.12802891 -0.1508808 -0.034216873 -0.122219935 -0.06876642
-0.036809795 0.13285413 -0.18003947 0.09953973 0.1315093 -0.074943826 0.15567504 0.016341431
-0.12147886 0.15040588 0.11592629 0.14732195 -0.057279218 -0.10481409 0.03261148 -0.09865725
0.22288689 -0.054373063 -0.21098812 0.25276485 -1.5320264 0.07245816 0.8733736 0.013991856
-0.22740984 -0.05947779 -0.063832685 -0.14946175 -0.08375568 -0.27012464 0.040980525 -0.20384252
0.04195937 -0.103937835 0.23441026 -0.19979553 0.092570126 0.043893218 -0.0931529 -0.22352353
0.35618803 0.04183123 0.42774466 -0.051441338 0.13301682 0.24876218 0.05544675 -0.8614705
-0.063919626 -0.089089565 0.55925864 0.2221229 -0.066006415 -0.09705446 -0.2134634 -0.16789518
0.01886681 -0.09769268 -0.14779149 -0.096799776 -0.03940324 -0.07769466 0.16905718 0.013052995
-0.22808734 -0.039498866 -0.023172265 -0.14992763 0.12993413 -0.85270894 -0.18161882 0.3833625
-0.12766525 0.078038566 0.044375636 -0.16097543 -0.1925623 -0.116552815 -0.19036856 0.012926518
-0.10278466 0.14673902 0.29986665 0.023522386 0.08458019 0.084661484 -0.3548967 0.46898407
0.09698649 0.24908064 -0.13973624 0.10269045 0.12763925 -0.12625515 0.120447524 -0.55080914
-0.04263545 0.14338554 -0.1943212 0.2104692 -0.07273774 -0.7826886 -0.3161218 -0.4179699
0.103087395 0.07123897 -0.23129955 -0.1152127 -0.14869602 -0.073565 -0.13066763 -0.047471266
0.007651475 0.009111242 -0.019811518 -0.4872343 -0.091654435 -0.5280317 -0.19826096 -0.12021638

gnn.gnn_layers.1.graph_conv.bias f4 [256]
00000000: 4f73 94bc e3be 3f3e ef81 05be a6fb f5bd
00000010: 7d1b 5ebe 2f0e 983d 6d68 34be cd66 7cbe
00000020: 33fb f5bd ee0f 353d 4cfb f5bd 6b26 f9bd
00000030: cbb7 243e 324f c03d 4bda 493e 380b f23d
00000040: d979 e13d 4f12 4ebd 438e acbd e4eb f5bd
00000050: 11f6 84be 9936 97bb f1c4 d93d dbfb f5bd
00000060: 3429 163e 3c4d c83d 2dd2 233e 9a5f 52bd
00000070: 82fb f5bd e8f1 ff3d 49ad f0bc d4fa f5bd
00000080: 7123 8a3c 2370 273e adfb f5bd faa5 eb3d
00000090: ef92 7abd 57fb f5bd a50b a5bd 397d c0bd
000000a0: bcd4 07be 912d 8dbe 02fa f5bd fca8 f83d
000000b0: eb71 c43d 589e 2e3e f9c2 263e ad8e 8cbe
000000c0: 8cf9 f5bd 3d42 c13d 15c6 db3d 763a 933d
000000d0: 06fa f5bd b57f a93d 9339 2c3e a7fb f5bd
000000e0: 11fc f5bd 15fc f5bd 2af1 f5bd 33f8 f5bd
000000f0: ff48 fbbd 8f1b 09be 4544 1dbe 3522 2abd
00000100: a8ef 20be 4327 e93d acfb f5bd b6b1 d83d
00000110: 17fb f5bd b7fb f5bd 1084 29be b8ff b3bd
00000120: f3fb f5bd 8cd5 283e ebfb f5bd d7d1 2a3d
00000130: fafb f5bd cad7 43be 0339 a8bd a7fb f5bd
00000140: 94ee 7cbd f32a 25be c3aa db3d 76c1 d2be
00000150: 0b2d ba3d bdf3 febd 8b28 fabd b94d e83b
00000160: 9991 ad3b f7e3 d9bc b5a4 7b3b 6139 6a3e
00000170: 0bef 4dbe 2396 bbbd 84da c33d 6405 28bc
00000180: d4d6 a73d b1fa f5bd 6a14 133e 6c40 863c
00000190: 9538 f6bd 3c46 c5bd 321b 4a3d a62b 073e
000001a0: cefb f5bd ace9 36bd e0c0 193d 54fa f5bd
000001b0: 07db 663d e4fb f5bd 8b37 e3bd e5d3 1bbe
000001c0: d1fb f5bd 63ee d6bd d966 fc3d b55f edbe
000001d0: a316 22be 84da 3dbc f1c4 35be 73e3 cbbd
000001e0: 170e 55bd 64ec 80bc f8fa f5bd 31a5 88be
000001f0: 941f 6fbe baf9 f5bd b99e 023d 90fb f5bd
00000200: a612 19be 02fc f5bd 8bfb f5bd 4bf3 f5bd
00000210: bffb f5bd 1ee1 b3be b4fa f5bd 1093 fbbd
00000220: b4c2 0abe 439b 0bbe 6d46 ba3c ed2b 483e
00000230: 59f5 373c 6005 d7bd 2be4 1bbd a201 2cbd
00000240: 8901 ad3d 4cc5 87bd ff85 b03d fac3 663d
00000250: f1fb f5bd e4c5 d73c 7afb f5bd f8fb f5bd
00000260: 0e48 f1b9 900f 08be c62f ffbd 4a29 3c3e
00000270: a2de 1ebe a35f fdbd 50e2 76bd b3cd d43d
00000280: a317 3b3e b7fb f5bd 19ee 0fbe fcfb f5bd
00000290: 3a18 0f3e 63f1 9f3d ffcb abbd 96fb f5bd
000002a0: 1d04 953d 53e8 f8bd 61db 0f3e 68a5 f5bd
000002b0: a2e7 b6bd 4ee6 e13d 84fa f5bd 58f7 f5bd
000002c0: 629f 48bb c7fb f5bd 751b afbe 0afc f5bd
000002d0: 7316 35bd af1c a0be 4f62 7dbe 3690 223e
000002e0: 6747 f5bd 33c3 9e3d 3264 9f3c 79ac 9d3d
000002f0: 7a8e f7bd 3bfa f5bd 5ffb f5bd 5f7b b9bd
00000300: 15db afbd e67d 77bc 0598 f6bd 90fb f5bd
00000310: c4fb f5bd c791 d63c 86a1 45bd 7cff 07be
00000320: 8cfb f5bd 0cf0 d63d 7293 fcbd cb73 b3bd
00000330: f1fc 54be dba7 7cbe fcf8 f5bd 3f36 27be
00000340: 92f1 f5bd aff5 a5bd a517 083e 23a2 803d
00000350: bdfb f5bd dafb f5bd f4fb f5bd 4d9e e8bd
00000360: 0ffc f5bd e5d0 45bd 1ece 14be 5c32 d63d
00000370: f5f7 eabd 2db6 1bbe 0eeb 2e3e 31a3 e9bd
00000380: d825 5b3c 994e 223e 378d f5bd 11a2 c2bd
00000390: 3727 2d3d bf61 01be 3f30 253e b94a 103e
000003a0: a1f9 f5bd ba81 30be 82d8 19be 5d75 803d
000003b0: cefb f5bd 92ad a63d 9d43 013d 22cc 1e3e
000003c0: ac53 28be 0574 ec3d 1c84 caba dcf9 f5bd
000003d0: 98fb f5bd a1a5 103e ec7d f7bd 2b51 203e
000003e0: 7aef 9ebd 1e90 b33d ef16 853d fae8 0f3e
000003f0: 5424 c2bd bce2 083e dcf7 f5bd b087 b3bd
-0.01812139 0.18725161 -0.13037847 -0.12010889 -0.21690173 0.0742458 -0.1761796 -0.2464859
-0.12010803 0.044204645 -0.12010822 -0.12165531 0.16085736 0.09390105 0.19712178 0.11818546
0.11009569 -0.05031043 -0.08425572 -0.12007883 -0.25968984 -0.004614663 0.10633267 -0.12010928
0.14664155 0.09780356 0.15998144 -0.051360704 -0.12010862 0.12497312 -0.029379504 -0.12010732
0.016862603 0.1635137 -0.12010894 0.11506267 -0.061175283 -0.1201083 -0.08058862 -0.09398884
-0.13264745 -0.27573827 -0.12010576 0.12141606 0.09592041 0.17052591 0.16285314 -0.27452603
-0.12010488 0.09436462 0.107311405 0.07188885 -0.12010579 0.08276311 0.16818838 -0.120108895
-0.120109685 -0.120109715 -0.12008889 -0.12010231 -0.12269782 -0.13389419 -0.15358074 -0.04153653
-0.15716422 0.11384442 -0.12010893 0.10580771 -0.12010782 -0.120109014 -0.16554284 -0.08789009
-0.12010946 0.16487712 -0.1201094 0.041704025 -0.12010951 -0.19125286 -0.08213999 -0.120108895
-0.061750963 -0.16129665 0.107259296 -0.41163224 0.090906225 -0.12448833 -0.12214764 0.0070893434
0.0052968976 -0.02659796 0.0038397734 0.22873451 -0.20110719 -0.09159496 0.09563163 -0.0102551915
0.08195272 -0.12010706 0.14363256 0.01638814 -0.12022511 -0.09632537 0.04934234 0.13200244
-0.120109186 -0.04465644 0.037537456 -0.12010637 0.056361225 -0.12010935 -0.11094578 -0.1521755
-0.12010921 -0.104946874 0.12324304 -0.4636208 -0.15828948 -0.011587743 -0.17750908 -0.09955492
-0.05201539 -0.01573772 -0.12010759 -0.2668853 -0.2335189 -0.12010522 0.03188965 -0.12010872
-0.1494852 -0.12010957 -0.12010869 -0.12009295 -0.120109074 -0.35132688 -0.120107085 -0.12283909
-0.13550836 -0.13633446 0.02273866 0.19548006 0.011227929 -0.10499072 -0.038059395 -0.041993745
0.084475584 -0.06629428 0.08619308 0.05633924 -0.12010945 0.026339479 -0.12010856 -0.1201095
-0.00046020787 -0.13287187 -0.12460284 0.18375126 -0.15514615 -0.12371757 -0.060274422 0.103907965
0.18270735 -0.120109014 -0.14055671 -0.12010953 0.13974085 0.07809713 -0.083885185 -0.12010877
0.07276175 -0.12153687 0.1404853 -0.11994439 -0.08930899 0.11030255 -0.12010673 -0.12010068
-0.0030612578 -0.12010913 -0.34200636 -0.12010963 -0.044210862 -0.31271884 -0.24744533 0.15875325
-0.119765095 0.07752075 0.019456957 0.07698912 -0.12087722 -0.12010618 -0.12010836 -0.09056734
-0.085867085 -0.0151057 -0.12040714 -0.12010872 -0.12010911 0.026192559 -0.048249744 -0.13281053
-0.120108694 0.10495004 -0.123328105 -0.0876232 -0.20799614 -0.24673407 -0.120103806 -0.16329287
-0.120089665 -0.08103501 0.1329027 0.06280925 -0.12010906 -0.120109275 -0.12010947 -0.113583185
-0.12010967 -0.04829492 -0.14531752 0.10458824 -0.11473075 -0.15206213 0.17081854 -0.114080794
0.013375722 0.15850295 -0.11989825 -0.09503568 0.042273726 -0.12634943 0.16131686 0.14091004
-0.120105036 -0.17236987 -0.15023997 0.06272385 -0.120109186 0.08138575 0.03155862 0.15507558
-0.16438168 0.115455665 -0.0015450749 -0.120105475 -0.12010878 0.14125682 -0.120845646 0.15655963
-0.0776052 0.087677225 0.06498515 0.14053717 -0.09479585 0.13367742 -0.12010166 -0.08766115

gnn.gnn_layers.1.res_connection.weight f4 [256, 256]
00000000: 7757 07bd 399d 583d 4a35 eabc 4a98 e93d
00000010: 9beb 453d 2a16 f5bd a184 d53c f99a cf3d
00000020: a712 6d3d 0964 65be 8f75 923d e1dc 9a3d
00000030: 4824 a7be d36b 2e3b 10fc 903d fe55 a23d
00000040: 3f7d 7cbd 7fa9 693d 61e7 84be ac8a 03be
00000050: 6ee0 e2bd 30bf abbd b576 22bc 93b1 d63d
00000060: 5259 1ebd 801d 40bd 80d4 36bd 58a5 63bd
00000070: f941 fe3d 01f0 a4bd 5d86 d43d fb7d 743c
00000080: a18e 253c cd20 82be ab04 bc3d 48ee 8cbd
00000090: c9fc 56be a524 1f3e 93ef 9b3c 927b 8ebb
000000a0: 5d9e 7f3d 8343 b1bc 3c46 90bd 34ea 50be
000000b0: 76eb 2b3e 8867 dfbc 7180 eabd 07b6 eabd
000000c0: 6644 94be d192 92bd 1f87 8b3d fce2 1c3e
000000d0: 5956 74be 1069 e7bd 0b04 80bb 3e12 d2bd
000000e0: 770d dc3d 0a3e e43d c1bd 183e decc 223e
000000f0: 84e8 f6bc b5d4 6abd b4c3 cf3d 32a2 bcbe
00000100: 7468 c7bd b7a8 98be 9d88 c73c 9344 39bd
00000110: b366 b2be 60ff 88be d0d7 febd ba20 87bd
00000120: 8d82 c5bd f3fc d33c 375e 443b db85 fb3d
00000130: 8583 58bb a231 44be 9da1 e23d bc2c 06be
00000140: d7a9 883d 2caf dc3c 53e9 933d 49a8 a2bd
00000150: f5ad 96be b045 28be 92d9 11bb def7 e5bd
00000160: 7d27 93bc d245 fdbe 5536 183e f00a 073d
00000170: 6953 353e 3ffc 49bd c4ec 0fbe 42c9 65bd
00000180: c741 c33d c808 ecbb 03af 18be 45ff e53d
00000190: 4558 6f3c a3e6 9e3b b988 cbbd 1ea8 05bb
000001a0: 2b7b 22be f2c5 cd3b 3e60 3abd 19f3 643d
000001b0: 2df3 edbd 6c93 01be 79c8 95bc 21c3 91bd
000001c0: 3d79 babc 9837 84bd a209 f03d dcd2 de3d
000001d0: c9de b93d 2a5a 4bbd 2a22 163d 8981 aabc
000001e0: 3c1d 013e 03da 5439 c4c9 a3bd ed63 fc3d
000001f0: 9c4a a0bd f742 cbbd 7768 be3d e3de 1dbd
00000200: 69c2 0abf 5156 88bc 2b4b c6bc 7faf ab3b
00000210: a26f c63c a5be 263d e365 213d c401 1b3e
00000220: 23cf fa3c 4c3f c53d e259 bdbd 64e5 edbd
00000230: 5ce7 1c3e 7009 1cbe 6a8f 883d 458e a73d
00000240: fdd4 86bd 327e 04bc 31b2 263e 383a 87bd
00000250: 13b0 44be 4e85 8a3d 6e98 47bd df2e 963c
00000260: b5b8 8e3d 2ed8 9c3d a112 9cbd a7d6 69be
00000270: 32b0 d03c e2d7 2dbe fcf3 da3c 186c afbe
00000280: e0b8 1a3e c2cc 113e 3f33 823e a6de d2be
00000290: 9b16 b4be 2670 28bc 4e65 66bc b47e b9bd
000002a0: 6f2c 8ebd 1c47 293b ed81 fb3b 403d aabe
000002b0: 82f4 e1bd 108f c43d 02b0 b1bd fc13 b63d
000002c0: cc0c e33d d170 9f3d af76 9abc f100 d93d
000002d0: 5dec a9bd 9a83 adbe 98b1 5abd cb7e 24bd
000002e0: 8e92 d63c b2ed ecbe 4d92 7c3d e2c7 14bd
000002f0: ad6e b73d 7d42 113e 7cf8 26be e09c 863d
00000300: 32d8 7abe dd2d 7f3d fa7f 423d 40b5 d8be
00000310: 7ec2 5fbe 1f77 e03d 98ad 91bb 831d 95bc
00000320: a227 60be ffd3 34be 2ade a73d 8ed1 36bd
00000330: c9c6 a1be 1fe4 743b 774a 24be 8832 073e
00000340: edac 42be b46f 253e 3856 80be 1468 a9bd
00000350: 4cf3 e7bd e8a8 59be 4f56 cb3d 06c1 333d
00000360: a62f f2bb 83d2 cdbc 6034 d73d 466f c63d
00000370: 2896 a23d cf37 bd3d dc56 053e 8bb7 073e
00000380: 789d 723d fa01 27be c030 ab3c 688d 8cbc
00000390: c69a 39be 6966 213d bde0 babd f4a7 183d
000003a0: 3994 0e3e 01a1 15bd f359 db3d 9b22 de3c
000003b0: 6c85 cebe 0c8b 263e 6daf 81be 9e18 173e
000003c0: 5019 4f3c 6612 bf3d c838 3c3c 8457 8e3c
000003d0: 208c 263e 4457 0ebe fd1d d8be 4755 a8bc
000003e0: 0dfd bb3d 39c0 cb3d 51a3 0e3e 26f3 37bd
000003f0: ca84 a23d d43c a1bc d5d8 11bf b92d 03bf
-0.033042397 0.052884314 -0.028589863 0.11406 0.048320394 -0.11967118 0.026064219 0.101369806
0.057879116 -0.22401442 0.07151329 0.075616606 -0.32644868 0.0026614561 0.07079327 0.07926558
-0.06164288 0.05704641 -0.25957778 -0.12845868 -0.11077963 -0.083860755 -0.009915997 0.10483088
-0.0386594 -0.046903133 -0.04463625 -0.055577606 0.12414927 -0.080535896 0.1037719 0.014922614
0.010104806 -0.2541565 0.09180578 -0.06881386 -0.20994867 0.15541323 0.019035136 -0.004348227
0.062406886 -0.021638637 -0.07044646 -0.20401841 0.1678904 -0.027271047 -0.114502795 -0.114605
-0.28958434 -0.07156909 0.06812882 0.15320963 -0.23861064 -0.11299336 -0.003906732 -0.10257386
0.10744756 0.111446455 0.14916135 0.15898463 -0.030140169 -0.05733176 0.10144749 -0.36842495
-0.0973672 -0.2981622 0.024357134 -0.045231413 -0.34843978 -0.26757336 -0.12443507 -0.06598039
-0.09644041 0.025877452 0.0029963383 0.1228139 -0.0033037376 -0.19159558 0.110659815 -0.13103002
0.066730194 0.026938997 0.072222374 -0.07942254 -0.29429594 -0.16432834 -0.0022254926 -0.112289175
-0.017963165 -0.4946733 0.14864476 0.032969415 0.177076 -0.049312826 -0.14055163 -0.056100138
0.095340304 -0.0072031952 -0.14910512 0.112303294 0.014608447 0.0048492714 -0.09938187 -0.0020394395
-0.15867297 0.0062797004 -0.04550194 0.0558959 -0.11618648 -0.12653893 -0.01828407 -0.07117296
-0.022762889 -0.06455916 0.11720587 0.10880062 0.09075696 -0.049646534 0.036653675 -0.02081372
0.12608808 0.00020299111 -0.07997468 0.12323747 -0.078267306 -0.09924882 0.09297269 -0.03854264
-0.54202896 -0.016642721 -0.024205765 0.0052394266 0.024223153 0.040709157 0.039403807 0.15137392
0.030616349 0.096312135 -0.092456594 -0.116160184 0.15322632 -0.15237975 0.06667979 0.08181433
-0.06583593 -0.008086728 0.16278912 -0.06602901 -0.19207792 0.06763707 -0.048729353 0.018332897
0.06968824 0.076584205 -0.07620741 -0.2283579 0.025474641 -0.16976884 0.026727669 -0.34262156
0.15109587 0.14238265 0.25429723 -0.41185492 -0.35173497 -0.0102806445 -0.014062239 -0.0905737
-0.06942069 0.0025829738 0.0076754005 -0.33249855 -0.11032964 0.095975995 -0.08676149 0.088905305
0.11086425 0.0778519 -0.01885542 0.10595883 -0.08297036 -0.33889467 -0.053392023 -0.04015998
0.02619293 -0.46275097 0.06166296 -0.036323436 0.089566566 0.1418552 -0.16305727 0.0657289
-0.24496534 0.062299598 0.04748533 -0.42325783 -0.21851537 0.109602205 -0.004445743 -0.018202549
-0.21890119 -0.17658995 0.08196671 -0.04463344 -0.31596974 0.0037367416 -0.16044031 0.1320287
-0.19011278 0.16155893 -0.2506578 -0.082718045 -0.11325702 -0.21255839 0.099285714 0.043885253
-0.007390934 -0.025124794 0.105080366 0.096891925 0.07938796 0.0923916 0.13021415 0.1325361
0.059232205 -0.16309348 0.02089727 -0.017157272 -0.18125448 0.039404307 -0.09124897 0.037269548
0.1392373 -0.0365305 0.10710516 0.02711611 -0.40336168 0.1626398 -0.25329152 0.14755484
0.012640312 0.09329681 0.011488147 0.017375715 0.16264391 -0.13900477 -0.4221038 -0.020548476
0.09179125 0.09948773 0.13929488 -0.04490962 0.07935484 -0.019682325 -0.56971484 -0.5124164

gnn.gnn_layers.1.res_connection.bias f4 [256]
00000000: 3758 01bd 7fa1 ddbd 5f26 4bbe 0fdf b9bc
00000010: f30e 123e 40dc ce3d a08a 563d a9a9 09be
00000020: c2b5 0fbd 1fce 0cbb 2046 cdbd ead3 353e
00000030: 62ea d93d 0c50 93be 88e1 0cbe 648a b43d
00000040: c568 c83d 192c 95bd 14fd 85bd a2a2 ccbd
00000050: ff94 61be 12c4 51be 798f c13d 6c95 1cbe
00000060: 44da 2e3e dfa7 f13c bc2b 77be d40a 13be
00000070: 9ef6 01be aa89 c1bd 5686 eabc 8611 b6bd
00000080: 7cbe a0bd f4bf be3c 59b1 42bd 9964 00be
00000090: 685e 8c3d ff6e 17be 08d9 18bc 547e 18bd
000000a0: 3e4f 22be 493d a6bd 844d 103e 50ab 9b3d
000000b0: 9c27 953d e1a1 f73d 2e0f 133e 4cb9 febd
000000c0: 9c89 4f3e 1a4d f03d fbee 32be fc8f c6bd
000000d0: e305 a5bc 52cd 943d 46e0 0b3e ef45 a9be
000000e0: c27e 51be 13ea 95bd f233 38be ca57 3abe
000000f0: 19c0 91bd e534 273c 75ae c3bd 8378 5e3b
00000100: 35a0 2fbe 58c2 023e 82b2 37be d349 2c3e
00000110: 3ee2 4bbc 7ffd 2bbe c8a9 20be a369 bfbd
00000120: 254c d9bd c69a 273e 6c03 29be 9818 f4bd
00000130: b35c 11be 8607 143d e49f 503d 0942 25be
00000140: 447d 0dbe 2fcf 76be 723e 993d 9a26 fdbe
00000150: 71a0 3fbc 9b0c e93d b082 1b3d abae 33bd
00000160: addc d8bc 2e65 9fbd 49d8 a1bd b29d 7ebd
00000170: 3463 2a3e fc16 c5bd c88f 0bbe a936 04be
00000180: df0a 12be b982 c9bd e5ed ca3c 29f2 08bd
00000190: 0baf 993d eae7 993e ea50 3f3d 6663 f53d
000001a0: a199 19be e7f6 57be 5814 043d 2eca d43d
000001b0: 7b0c b93d 99db dbbd 5d32 0abe ce4c a7be
000001c0: a9df 3abe 687d fbbd 64e2 303d f10e 5cbe
000001d0: 1bf1 fe3d d23e 21bd 3ff9 473d 1fb3 5fbe
000001e0: 5b44 04be 6bdb 7c3b b397 a3bd 78b7 38be
000001f0: e659 19be 9c78 863d ed5b 07be 492b debd
00000200: 208a 0fbd 48f8 72bd 1f6a b2bd fe87 b3be
00000210: f968 3fbe d6af bbbd 84f7 b6bd ecf4 833d
00000220: 8217 07be b6ea 16be 9cb0 c43d 1301 5d3e
00000230: dc5a 00bc f09a 98bd f20a abbe 506a a1bd
00000240: 63df 9cbd ba7d adbd 51cc da3d fad5 2c3e
00000250: 5ece a5bd 60be 753d 8c2d 24be e72a ccbd
00000260: 6a1e 3cbe 2751 34be 62eb 6dbe 86c1 f6bd
00000270: 050e 1cbf 8c10 38be ad92 95be 3349 1a3e
00000280: 3edb 973d ad35 9dbd c9b2 13be 5d4d 28be
00000290: c9f5 cd3d b0ee da3a ebe1 923d 22c2 7ebd
000002a0: 8ee9 dfbb 1017 203e 5453 003e af10 2fbe
000002b0: 5ae9 e83c b2aa 303d ee3c 733c 583e 813d
000002c0: 17e6 133d ebbf 04be 0b9a 13be eb5a d03d
000002d0: 61e2 9fbd 625d acbe f026 d1bd 7f32 38be
000002e0: 6a9e e3bc ac82 da3d bc32 c83d 5caf 62bd
000002f0: f223 c8be 8a03 c2bd 8eb1 fe3c d8a9 53be
00000300: 09b7 e53d 69b5 cebd 0424 38be 5ada 79bd
00000310: c1ab 2dbe 7879 b1bc 20b0 d3bd 9e8b b63c
00000320: e799 37be f9dc f23d 6811 a1bd 8dbe fabb
00000330: 02d3 2abc f80a fc3d a18d 28be a169 07be
00000340: 2e34 d33d 642b 04be 6cb2 813d 273b 623d
00000350: 3d3c fdbd 008c d1bc be05 70be 475d 03be
00000360: 7c67 bbbd ee08 b8bd 6959 1cbe ac43 d43d
00000370: 9b21 9bbc f4d7 9abd d451 503e 8140 85bd
00000380: 39ee d33d 08e4 db3d 1438 1ebe c67b 8d3c
00000390: 78ce fdbd 0624 d8bd 2551 ea3d 5c7c 8b3d
000003a0: e2f5 3cbe bb77 f4bd b32a 13be 1b61 943e
000003b0: 409a 88bd ec12 2e3e ff07 cabd 853b 053d
000003c0: 76ba 173e a97c 82bd 6c1d 3a3c 96cc 343e
000003d0: 6888 d73d 40b3 13be 3fb3 06be 33b3 313e
000003e0: 78b4 51be c157 d7bb 3faa d93d 636d e83d
000003f0: 86b2 1cbe c452 b53d f1c0 aabd ceca fa3d
-0.03157827 -0.108218186 -0.19838856 -0.02268937 0.14263515 0.10100603 0.052378297 -0.13443626
-0.035085447 -0.0021485162 -0.10023141 0.1775662 0.10640408 -0.28772008 -0.13757908 0.088154584
0.09785608 -0.072838016 -0.065424114 -0.09991957 -0.22029494 -0.20484951 0.09451193 -0.15291375
0.17075449 0.029498992 -0.24137777 -0.143596 -0.12691733 -0.094500855 -0.02862851 -0.08890061
-0.07848832 0.02328489 -0.047532413 -0.12538375 0.06853944 -0.14788435 -0.009329088 -0.03722985
-0.15850541 -0.08117158 0.1409207 0.07601035 0.072829455 0.12091423 0.1436126 -0.12437686
0.20267338 0.11733456 -0.17473976 -0.096954316 -0.020144409 0.07265724 0.13659772 -0.33061168
-0.2045851 -0.07320037 -0.17988566 -0.18197551 -0.07116718 0.010205482 -0.095547594 0.0033946342
-0.17150958 0.12769449 -0.17939189 0.16825037 -0.012444077 -0.1679592 -0.15689766 -0.093463205
-0.106102265 0.16367635 -0.16505212 -0.119187534 -0.14195518 0.036139987 0.050933734 -0.16138472
-0.13817316 -0.24102472 0.074826136 -0.49443513 -0.011695967 0.113793574 0.03796643 -0.04386775
-0.026472414 -0.0778297 -0.07902581 -0.06216211 0.16639405 -0.096235245 -0.13629067 -0.12911476
-0.1426196 -0.098393865 0.02477164 -0.033434067 0.0750409 0.3005975 0.046708025 0.11981849
-0.15000011 -0.2109028 0.032245964 0.10390125 0.090355836 -0.10735244 -0.13495775 -0.32675785
-0.18249382 -0.12279779 0.043184653 -0.21490075 0.12448331 -0.03936655 0.048821684 -0.21845673
-0.129167 0.0038582932 -0.07987919 -0.18038738 -0.149757 0.06565973 -0.1321866 -0.108481
-0.035043836 -0.05931881 -0.08711647 -0.3506469 -0.18692388 -0.091643974 -0.089339286 0.064431995
-0.13192561 -0.14737973 0.09603998 0.21582441 -0.007834163 -0.07451427 -0.33406788 -0.078816056
-0.07659795 -0.08471246 0.106835015 0.168785 -0.08096002 0.05999601 -0.16033 -0.099691205
-0.18370977 -0.17609082 -0.23234323 -0.120486304 -0.6095889 -0.17975062 -0.29213467 0.15066986
0.07414864 -0.076762535 -0.1442367 -0.16435762 0.100566454 0.0016703214 0.07171997 -0.06219686
-0.006833262 0.15633798 0.12531787 -0.17096208 0.028431583 0.043131538 0.01484607 0.06310719
0.036108103 -0.12963836 -0.14414231 0.10173591 -0.0780685 -0.33664995 -0.10212505 -0.17988013
-0.027785499 0.10669455 0.09775302 -0.055343017 -0.39089924 -0.09473331 0.031090524 -0.20670259
0.11216552 -0.10093195 -0.17982489 -0.060999252 -0.1696005 -0.021664366 -0.103363276 0.022283372
-0.17929803 0.118585534 -0.07864648 -0.00765211 -0.010426285 0.123067796 -0.16460277 -0.13223888
0.10312687 -0.12907177 0.063328594 0.055232193 -0.12365005 -0.025579453 -0.2343969 -0.12828551
-0.091505975 -0.08986078 -0.15268482 0.1036447 -0.018936923 -0.07560721 0.20343715 -0.06506444
0.10348172 0.10736853 -0.1545108 0.017270934 -0.123928964 -0.10553746 0.11441258 0.06810829
-0.18453172 -0.11936899 -0.14371757 0.28980336 -0.06670046 0.16999406 -0.098648064 0.032527465
0.14817223 -0.06371433 0.011359554 0.17656168 0.10524064 -0.14423847 -0.13154314 0.17353515
-0.20479 -0.0065717404 0.10628175 0.11348989 -0.15302476 0.08853677 -0.08337582 0.12245713
