model/substrate/GNN/attentivefp/GCN/model_best.pkl (torch, 881882 bytes, 16 tensors)

gnn.gnn_layers.0.graph_conv.weight f4 [39, 256]
0	0xba8bf31f	-0.0010677314
1	0x3d9cae8d	0.076504804
2	0xbdf0641a	-0.11737843
3	0xbdd6f312	-0.10495581
4	0xbd60fcef	-0.054928716
5	0x3d1ca4ea	0.03824321
6	0xbb392e97	-0.002825653
7	0x3de79553	0.11307778
8	0xbc4f5c04	-0.012656216
9	0x3d1a92d1	0.03773767
10	0xbd3089b0	-0.04310006
11	0xbce5a5bf	-0.028033135
12	0xbe0b844b	-0.13624685
13	0xbdc16fa7	-0.09445124
14	0xbd70ccdc	-0.05878912
15	0x3bad1cb2	0.0052829618
16	0x3d66ef67	0.056380656
17	0x3daf4072	0.08557214
18	0xbdc6027e	-0.09668444
19	0xbd7e6030	-0.06210345
20	0x3d542c62	0.05180014
21	0x3df28922	0.11842562
22	0xbcf06fbc	-0.029350154
23	0x3dda9032	0.10672034
24	0xbcbc4f84	-0.022987135
25	0x3c773ece	0.015090657
26	0x3e043bc9	0.12913431
27	0xbe077987	-0.13229953
28	0xbdb7df54	-0.08978143
29	0xbd13e2f5	-0.036105115
30	0xbd63b3a6	-0.055591248
31	0x3dfc5a68	0.12321931
32	0xbdbd5131	-0.09244002
33	0xbd8673a8	-0.065650284
34	0xbdcc0e36	-0.09963648
35	0xbe08c5e9	-0.13356747
36	0xbdaa7eff	-0.08325004
37	0x3dfb1135	0.12259141
38	0x3d82544c	0.063637346
39	0x3d8d8f91	0.06912149
40	0x3bf5c560	0.0075003356
41	0xbd95bdfb	-0.073116265
42	0x3cc5a897	0.024128241
43	0xbe085ac1	-0.1331587
44	0xbdd30b2c	-0.10304865
45	0xbd9692d0	-0.07352221
46	0x3db84802	0.089981094
47	0x3dab3ff6	0.08361809
48	0xbd8188ac	-0.06324896
49	0xbba89ecb	-0.0051458827
50	0x3dbaccbe	0.09121083
51	0x3e112e48	0.14177811
52	0x3d67d6be	0.05660128
53	0x3c9dd43d	0.019266242
54	0x3dc3d517	0.09562128
55	0xbdabf97a	-0.08397193
56	0x3cd9b4b1	0.026575418
57	0xbde2728d	-0.11057005
58	0xbdca6ee8	-0.09884435
59	0xbd96e197	-0.073672466
60	0x3d8427f8	0.06452936
61	0x3d6aec0f	0.05735403
62	0xbdad02ee	-0.084478244
63	0x3d3079d7	0.043084946
64	0x3da05751	0.07829154
65	0xbc9375b6	-0.018000465
66	0x3bb26e19	0.0054452536
67	0x3d0759b2	0.033044524
68	0x3db53253	0.08847489
69	0x3e0c3973	0.1369379
70	0xbde1147a	-0.10990234
71	0xbd5612ca	-0.052264012
72	0x3d6593ac	0.056049034
73	0x3df1ffa9	0.118163414
74	0x3dfe2a7a	0.124104455
75	0x3e00db74	0.12583715
76	0x3ce88241	0.028382422
77	0xbdfdfbc5	-0.12401537
78	0x3c56f324	0.013119493
79	0xbdb6b949	-0.08922059
80	0xbe0819ae	-0.13291046
81	0x3e01c0d7	0.12671219
82	0x3dde150a	0.10843857
83	0xbe11ad33	-0.14226227
84	0x3cdaac58	0.026693508
85	0xbcc4cfda	-0.024024893
86	0xbcc041c3	-0.023468858
87	0xbd85b30c	-0.06528291
88	0x3d60a37b	0.054843407
89	0xbdacff44	-0.084471256
90	0x3d5624f9	0.052281354
91	0x3d93b46b	0.07212146
92	0x3dd1169a	0.10209389
93	0x3d5a6b98	0.053325266
94	0xbe1089dd	-0.1411509
95	0xbdbd77de	-0.092513785
96	0x3d91d667	0.07120972
97	0x3cf486e2	0.029849473
98	0xbde3d7d8	-0.11125153
99	0xbda82ebc	-0.08212039
100	0x3e09627e	0.13416478
101	0x3dc4ce32	0.09609641
102	0xbd7eb447	-0.062183645
103	0xbd130590	-0.035893977
104	0xbe0b1d78	-0.1358546
105	0xbb27fe5a	-0.0025633783
106	0xbddbf325	-0.107397355
107	0xbde14b4b	-0.11000689
108	0xbc00beed	-0.00785802
109	0x3caf6a20	0.021412909
110	0xbd6f3a2b	-0.058405083
111	0x3dad4f93	0.08462443
112	0xbdb1bd38	-0.08678669
113	0x3e048297	0.12940441
114	0x3dc828b8	0.097733915
115	0xbdf64d4e	-0.120264634
116	0xbd1162c7	-0.035494592
117	0x3bd2ddfd	0.0064351545
118	0x3caa74d1	0.020807656
119	0x3d0a8ba0	0.033824563
120	0x3d653cb2	0.055966087
121	0x3c0bf679	0.00854265
122	0xbd8e8309	-0.06958587
123	0x3d8a34ed	0.06748376
124	0xbe0c161d	-0.1368031
125	0xbdad1d69	-0.08452875
126	0xbd123af2	-0.035700746
127	0xbd8e4611	-0.06946958
128	0xbd4c5af2	-0.04989142
129	0xbdef6420	-0.11689019
130	0xbcf883e6	-0.030336332
131	0x3cf9bb55	0.030484835
132	0xbdbe46e6	-0.092908666
133	0xbbefd364	-0.007318901
134	0x3dd1150d	0.10209093
135	0xbc703403	-0.014660838
136	0x3b81e0ef	0.0039635818
137	0xbc499375	-0.012303223
138	0x3cec7138	0.02886258
139	0x3db9b680	0.09068012
140	0x3e0a5562	0.13509133
141	0x3db97bea	0.09056838
142	0x3e0aa669	0.13540043
143	0xbc28fca2	-0.010314139
144	0xbe03304e	-0.12811396
145	0xbd8a7757	-0.067610435
146	0x3dc6e020	0.09710717
147	0xba725a02	-0.00092449796
148	0xbd912cc5	-0.07088617
149	0xbddfd214	-0.10928741
150	0xbe08ab68	-0.13346636
151	0xbdf68389	-0.12036807
152	0xbcecf96b	-0.028927526
153	0x3da02cfe	0.078210816
154	0x3d9de866	0.07710342
155	0xbe0cd7e2	-0.13754228
156	0x3db630f4	0.08896056
157	0xbde48d32	-0.11159743
158	0xbcf6fda2	-0.030150238
159	0xbd6cdb61	-0.057826404
160	0xbce10854	-0.027469791
161	0xbce56325	-0.028001377
162	0xbe030bfb	-0.12797539
163	0xbdfc3051	-0.12313903
164	0xbcb6d0a8	-0.022316292
165	0x3af1bd21	0.0018443206
166	0xbd84aeb2	-0.06478633
167	0x3d5c0c88	0.05372289
168	0xbe03713d	-0.12836166
169	0xbc1db0d5	-0.00962468
170	0x3e006da4	0.12541825
171	0xbd6e452d	-0.05817144
172	0x3e03df54	0.12878162
173	0x3d538d5e	0.05164849
174	0xbe03cb0f	-0.1287043
175	0x3db8cb90	0.090232015
176	0xbc86d0c0	-0.016456962
177	0xbd826264	-0.06366423
178	0x3de98f10	0.1140424
179	0xbdec0647	-0.11524635
180	0x3c7aba94	0.015303273
181	0xbcf49b07	-0.029859079
182	0x3dd09315	0.10184304
183	0x3d230ff6	0.039810143
184	0x3d8c57fa	0.06852718
185	0x3d4e4c43	0.050365698
186	0xbd0c792e	-0.034295253
187	0xbcf5b331	-0.029992672
188	0xbdf0b196	-0.11752622
189	0x3d9e425b	0.077275
190	0x3de7e6b9	0.11323304
191	0x3dc7d856	0.0975806
192	0xbdce0601	-0.10059739
193	0x3bd06c9f	0.006360605
194	0xbdcde4cb	-0.100534044
195	0xbda0c862	-0.0785072
196	0xbdaa319c	-0.083102435
197	0x3d47a165	0.048737902
198	0xbdae0d2a	-0.084986046
199	0xbb4be996	-0.003111457
200	0x3bc497c5	0.0059995377
201	0x3dbc4743	0.091932796
202	0xbddcc913	-0.10780539
203	0xbdc8835e	-0.09790681
204	0xbda998c8	-0.08281094
205	0x3dcc6ee3	0.099820875
206	0xbd51fb49	-0.051265035
207	0x3df65cb1	0.12029398
208	0x3d533bb0	0.051570594
209	0x3c93efef	0.018058745
210	0xba8b2654	-0.0010616281
211	0xbce6f393	-0.028192317
212	0x3c929518	0.017893359
213	0xbd05633a	-0.032565333
214	0xba835802	-0.0010020735
215	0x3c951128	0.018196657
216	0xbde47671	-0.111554034
217	0xbd9915f4	-0.0747489
218	0x3debd93a	0.11516042
219	0xbded0859	-0.11573858
220	0xbc27c84d	-0.0102406265
221	0x3e10774d	0.1410801
222	0x3d530448	0.051517755
223	0x3b845004	0.004037859
224	0xbdfd1d7f	-0.123591416
225	0x3d90b004	0.07064822
226	0xbdd00a1c	-0.10158178
227	0xbd25d1c3	-0.040483247
228	0xbd43fdf1	-0.0478496
229	0xbcad02b5	-0.021119455
230	0x3acc77a1	0.0015599617
231	0x3df0e7e0	0.11762977
232	0x3c91d96a	0.017803866
233	0x3e02ce07	0.12773906
234	0x3db2aa7f	0.08723926
235	0xbdb8a76b	-0.090163074
236	0x3d82ff34	0.063963324
237	0xbdce777e	-0.10081385
238	0xbd7793dc	-0.060443744
239	0x3d2bcfd6	0.041946255
240	0x3d40e1bd	0.04709028
241	0x3ddb1f7a	0.10699363
242	0xbd3c0c18	-0.04590997
243	0x396f6594	0.00022830657
244	0x3d965dfe	0.07342146
245	0xbe0d3b56	-0.13792166
246	0x3dd32a27	0.10310774
247	0xbdf18603	-0.11793139
248	0x3b00d11c	0.001965589
249	0xbcc6a174	-0.024246909
250	0xbd99d3fd	-0.07511137
251	0x3c9a6a5e	0.018849548
252	0x3df185bc	0.11793086
253	0xbd2ac22f	-0.041689094
254	0xbdad673d	-0.08466957
255	0xbd580a9d	-0.052744497

gnn.gnn_layers.0.graph_conv.bias f4 [256]
0	0xbe01fe1b	-0.1269459
1	0xbe325a29	-0.17417206
2	0x3e91923b	0.28431877
3	0xbe8aff3d	-0.27147856
4	0x3d0cbefe	0.03436183
5	0xbe2cc769	-0.16872944
6	0xbe5c9213	-0.21540098
7	0x3c1282a3	0.008942279
8	0xbcb8f333	-0.022576904
9	0xbdf2b320	-0.11850572
10	0xbdf1bbf2	-0.11803426
11	0xbe324c1d	-0.17411847
12	0xbdb87e57	-0.090084724
13	0xbd52d51a	-0.05147276
14	0xbe610858	-0.21975839
15	0xbdf9a398	-0.12189406
16	0xbdacc369	-0.08435709
17	0xbe0a1429	-0.13484253
18	0xbdf6b1fe	-0.12045668
19	0xbe291c7e	-0.16514775
20	0xbe0728ed	-0.13199206
21	0xbdf4d97e	-0.11955546
22	0xbeb3a0e0	-0.35083675
23	0xbe8163e1	-0.25271514
24	0xbe233286	-0.15937242
25	0x3da8eb3b	0.08247992
26	0xbdef981f	-0.11698937
27	0xbe0421ca	-0.12903515
28	0xbe8a4b85	-0.27010742
29	0xbe011d60	-0.12608862
30	0xbe41bd56	-0.18919882
31	0xbea535e2	-0.32267672
32	0xbe5de25b	-0.21668379
33	0xbe044ae9	-0.12919201
34	0xbeabda24	-0.33564866
35	0xbd01ab78	-0.031657666
36	0xbdf055f2	-0.11735143
37	0xbdf59bd0	-0.119926095
38	0xbde03f76	-0.10949604
39	0xbe97116d	-0.29505482
40	0xbdf5c090	-0.11999619
41	0x3e842d99	0.25816038
42	0xbd70cafb	-0.058787327
43	0x3d487bde	0.048946254
44	0xbd8f00af	-0.06982552
45	0x3c855a15	0.016278306
46	0xbe418746	-0.18899259
47	0xbe22faae	-0.15915939
48	0x3d988f72	0.07449235
49	0xbe172313	-0.14759474
50	0xbdf9ec52	-0.12203278
51	0xbe0441a0	-0.12915659
52	0xbe9c0f4f	-0.3048043
53	0xbeba0d68	-0.36338353
54	0xbe8dd50a	-0.27701598
55	0xbdecefeb	-0.11569198
56	0x3d7b2819	0.061317537
57	0x00000000	0.0
58	0xbea71088	-0.326298
59	0xbd934122	-0.071901575
60	0xbdae0b66	-0.08498268
61	0xbe10bef4	-0.14135343
62	0x3c68a998	0.014200591
63	0x3cd74d97	0.026282115
64	0xbb7baf10	-0.0038403906
65	0xbe1e6818	-0.15469396
66	0xbe098f4a	-0.13433567
67	0xbcbca360	-0.023027122
68	0xbbae0a4a	-0.005311285
69	0xbe0e787a	-0.13913146
70	0xbeb09a0b	-0.34492525
71	0xbdf53ea0	-0.119748354
72	0xbd00afd8	-0.031417698
73	0xbd003c8e	-0.03130775
74	0xbddfbdc5	-0.109248675
75	0xbdf9cde1	-0.121974714
76	0xbea34709	-0.31890133
77	0xbe27e8c0	-0.16397381
78	0x3e000e94	0.12505561
79	0xbdf48101	-0.11938668
80	0x3e4f46ef	0.20241903
81	0xbe201b14	-0.1563533
82	0xbe8fdd36	-0.28098458
83	0xbdba2830	-0.090896964
84	0xbdfc0d37	-0.12307208
85	0xbdf89430	-0.121376395
86	0xbe86180b	-0.26190218
87	0xbdf8527c	-0.12125108
88	0xbb5cdb97	-0.0033700222
89	0xbe0dccda	-0.13847676
90	0xbdc53302	-0.096288696
91	0xbdea32f7	-0.11435502
92	0xbdffd8d0	-0.124925256
93	0xbce2573d	-0.02762949
94	0xbee13a82	-0.4398995
95	0xbe0a1dcd	-0.1348793
96	0xbdf5c02a	-0.11999543
97	0xbc19a9c1	-0.009378851
98	0xbdff21e6	-0.124576375
99	0xbe9d48ee	-0.30719703
100	0xbee5c359	-0.448756
101	0xbe6916eb	-0.22762649
102	0xbe97f1df	-0.2967672
103	0x3cdac057	0.026703043
104	0xbee0399d	-0.43793955
105	0x3e1750af	0.14776872
106	0xbdf0f78d	-0.117659666
107	0xbcdd6c94	-0.027029313
108	0xbdefc8a6	-0.117081925
109	0xbdf93376	-0.121680185
110	0x3e84e13e	0.25953096
111	0xbd22a527	-0.039708283
112	0xbd97e148	-0.07416016
113	0xbdf28bb4	-0.118430525
114	0xbdcb9aa9	-0.099416085
115	0xbe0438ce	-0.12912294
116	0xbda5899a	-0.08082886
117	0xbea89c41	-0.32931712
118	0xbdf275a4	-0.118388444
119	0xbeb0ee48	-0.34556794
120	0xbe04c926	-0.12967357
121	0xbe90f573	-0.28312263
122	0xbe00030c	-0.12501162
123	0xbe825716	-0.25457066
124	0x3c12d13d	0.008961019
125	0xbde51752	-0.111860886
126	0xbdfd0977	-0.12355321
127	0xbe004a0c	-0.12528247
128	0xbe3f2065	-0.18664701
129	0xbd1e709c	-0.03868161
130	0xbdf38391	-0.11890329
131	0xbe79b4b7	-0.24385343
132	0xbdf5fc03	-0.12010958
133	0xbdf27750	-0.11839163
134	0xbdf50751	-0.11964286
135	0x3dc2a288	0.095036566
136	0xbd88812f	-0.06665265
137	0xbdc58ce4	-0.096460134
138	0xbe4d40ce	-0.20044252
139	0xbeb12492	-0.34598213
140	0x3c037b1c	0.008024957
141	0xbe010ed6	-0.12603316
142	0xbdec3cd7	-0.11535042
143	0xbc1db476	-0.009625545
144	0x3dc8acd5	0.0979859
145	0xbdf3b854	-0.11900392
146	0x3e0b94d4	0.13630992
147	0xbd8ae13f	-0.067812435
148	0xbd75efdd	-0.060043205
149	0xbdf7800e	-0.12084971
150	0xbea5a017	-0.323487
151	0xbe131081	-0.14361764
152	0xbeaeac72	-0.3411594
153	0xbe278f53	-0.16363268
154	0xbda556bf	-0.08073186
155	0xbe372566	-0.1788536
156	0xbe849936	-0.2589814
157	0xbdf2b300	-0.11850548
158	0xbdf17159	-0.117891975
159	0xbdfa8717	-0.122327976
160	0x00000000	0.0
161	0x3b1ab7fa	0.0023608194
162	0xbddcc2af	-0.107793204
163	0xbdf3479d	-0.118788935
164	0x3e86129a	0.26186067
165	0xbe13b1e9	-0.14423336
166	0xbdf321f6	-0.11871712
167	0xbdf66c51	-0.120323785
168	0x3d8c6129	0.06854469
169	0xbccbaa03	-0.024861341
170	0xbdbd85eb	-0.092540585
171	0xbcb09069	-0.021553235
172	0x3b8111d4	0.003938893
173	0xbe0e386d	-0.13888712
174	0xbe7d4082	-0.24731639
175	0xbe47f600	-0.19527435
176	0xbba64bf7	-0.0050749737
177	0xbdfd01bc	-0.123538464
178	0xbde71ceb	-0.112848125
179	0xbc193b59	-0.0093525285
180	0xbdf8105e	-0.12112497
181	0xbd382653	-0.044958424
182	0x3e069594	0.13142997
183	0xbde9d5f1	-0.11417759
184	0xbec016de	-0.37517446
185	0x00000000	0.0
186	0xbe2b436d	-0.1672494
187	0xbd90dd37	-0.070734434
188	0xbdf5f82e	-0.12010227
189	0xbe09a5b2	-0.13442114
190	0xbab0ae83	-0.0013479743
191	0x3ce8dac4	0.028424628
192	0xbdfa79fe	-0.122302994
193	0xbe8b7f65	-0.27245632
194	0xbda1a0b7	-0.07891982
195	0xbe74f222	-0.23920491
196	0xbd371859	-0.044700954
197	0xbe669980	-0.22519493
198	0xbd856471	-0.06513298
199	0xbeb74b81	-0.35799792
200	0xbe6d6cf2	-0.2318609
201	0xbe3fc23c	-0.18726438
202	0xbde3224e	-0.110905275
203	0xbe877bbb	-0.26461586
204	0x3e01ea4b	0.12687032
205	0xbdd9d936	-0.10637133
206	0xbe2ab10c	-0.166691
207	0x3dcadb1a	0.099050716
208	0xbdf5f597	-0.12009733
209	0xbe0ad17d	-0.13556476
210	0xbd408b4d	-0.047007848
211	0xbdfc193a	-0.12309499
212	0x00000000	0.0
213	0xbe50824f	-0.20362209
214	0xbcc398e6	-0.023876619
215	0xbdb610ee	-0.08889948
216	0xbe0dbb3b	-0.13840954
217	0xbe9fa0b1	-0.31177285
218	0xbe21c1ed	-0.15796633
219	0xbde37940	-0.11107111
220	0xbca58305	-0.020204077
221	0xbd221a8a	-0.03957609
222	0xbdfaea5b	-0.12251731
223	0x3dbb3184	0.09140304
224	0x3e92c5e8	0.28666615
225	0xbdf627d3	-0.120193146
226	0xbe4c3f1f	-0.19945954
227	0xbe18e7f0	-0.14932227
228	0xbe15e385	-0.14637573
229	0xbde9b028	-0.11410552
230	0xbe023926	-0.12717113
231	0xbbea4c14	-0.0071501825
232	0xbea0fba8	-0.31441998
233	0xbdf5dd6d	-0.12005124
234	0xbdf5fa4d	-0.12010632
235	0xbdf64907	-0.120256476
236	0x3d66e4af	0.056370433
237	0xbdf5fbee	-0.120109424
238	0xbdf6ad82	-0.12044813
239	0x3e65ece6	0.22453651
240	0x00000000	0.0
241	0xbefa686d	-0.48907796
242	0xbe3d9ab1	-0.18516041
243	0xbd72fce0	-0.05932319
244	0x3ce457e8	0.027873948
245	0xbe2fb7c3	-0.17159943
246	0xbde0d180	-0.10977459
247	0x3ccd9985	0.025097618
248	0xbe3e8272	-0.18604448
249	0xbe0cd899	-0.137545
250	0xbe51ae3f	-0.20476626
251	0xbdfa2d7b	-0.12215706
252	0xbde100b5	-0.10986463
253	0xbe0188aa	-0.1264979
254	0xbe49e863	-0.19717555
255	0xbea21cdb	-0.3166264

gnn.gnn_layers.0.res_connection.weight f4 [256, 39]
0	0xbd97333a	-0.073828176
1	0x3e5ffbf5	0.21873458
2	0xbf4cfaa1	-0.8006993
3	0x3ef83fc8	0.4848616
4	0xbe256f82	-0.16155818
5	0xbd4ccf42	-0.050002344
6	0xbebb656d	-0.3660082
7	0x3d3789c7	0.04480913
8	0xbe446aeb	-0.19181411
9	0x3da95832	0.08268775
10	0x3c24bb97	0.0100544905
11	0xbb55d0d0	-0.0032625683
12	0xbe0f01c6	-0.1396552
13	0xbda2782f	-0.079330795
14	0xbd03649e	-0.032078378
15	0x3e1d7a81	0.15378763
16	0x3e01c748	0.12673676
17	0x3e5d7901	0.2162819
18	0xbf5965cb	-0.8492095
19	0x3e424ecc	0.18975371
20	0xbc967f6b	-0.018371304
21	0x3d1469ce	0.036233716
22	0x3f53741e	0.82599056
23	0x3d38cf10	0.045119345
24	0x3ef7d9f4	0.48408473
25	0x3ea44b2d	0.32088605
26	0xbe1d427a	-0.1535739
27	0xbdb82782	-0.089919105
28	0x3cc99ab4	0.024609901
29	0x3c07565e	0.008260338
30	0x3e84cff2	0.259399
31	0xbeb73fd7	-0.35790893
32	0x3ed8160e	0.42204326
33	0xbc26c620	-0.010179073
34	0x3d9a3817	0.075302295
35	0x3e0b98ad	0.1363246
36	0x3ea1f68e	0.3163342
37	0xbdb3222d	-0.08746753
38	0x3f775ab6	0.9662279
39	0x3b89e5b1	0.0042082896
40	0xbe7a183d	-0.24423309
41	0x3d7f7f9c	0.062377557
42	0x3b0c18f7	0.0021377185
43	0x3d00857d	0.031377304
44	0x3d2e47d3	0.042548966
45	0xbd3886c7	-0.04505041
46	0x3bbc3c01	0.0057444577
47	0xbde447ae	-0.11146484
48	0xbcf70940	-0.030155778
49	0xbd0dde49	-0.034635816
50	0xbd602dd9	-0.054731224
51	0xbdcf4763	-0.10121038
52	0xbc88bd74	-0.0166919
53	0xbb7ab214	-0.0038253115
54	0xbd567f2a	-0.052367367
55	0xbd204f9a	-0.039138414
56	0xbe3e9b7f	-0.18614005
57	0xbe111d33	-0.14171295
58	0x3c405d1b	0.011740948
59	0xbd357b0f	-0.04430681
60	0xbdaf279b	-0.08552476
61	0xbda6fe71	-0.081539996
62	0xbe105454	-0.14094669
63	0xbe0265d5	-0.12734158
64	0xbe0a7747	-0.13522063
65	0xbe8c56c7	-0.27409956
66	0x3c083d08	0.008315332
67	0xbdf4c7e1	-0.119521864
68	0x3d6800da	0.056641437
69	0xbca025b6	-0.019549232
70	0x3da98bf0	0.08278644
71	0xbdcb2eb3	-0.099210165
72	0xbda423c2	-0.08014633
73	0x3d6d6bd7	0.057964172
74	0xbe1ace3d	-0.15117736
75	0xbc274781	-0.010209919
76	0xbc13c832	-0.009019898
77	0xbd9f7a21	-0.07786966
78	0x3e0aeb71	0.13566376
79	0xbf1a5f50	-0.60301685
80	0xbf0406c0	-0.515728
81	0x3e5f158f	0.21785568
82	0x3d4ce5a7	0.0500237
83	0x3d1530e8	0.036423594
84	0xbeb28cb1	-0.34872964
85	0x3f5fdfc2	0.874508
86	0x3f2392f6	0.6389612
87	0xbdefff94	-0.117186695
88	0x3c7d719a	0.015468979
89	0xbf7e92a2	-0.99442494
90	0x3e1c1460	0.15242147
91	0xbeeae6a2	-0.45879084
92	0x3d69e0bc	0.05709909
93	0xbdfc6a6a	-0.12324984
94	0x3d691fe1	0.056915168
95	0x3ef44471	0.47708467
96	0x3ed1e936	0.40998238
97	0xbef9f07f	-0.48816296
98	0xbf26655a	-0.649984
99	0xbc75fb46	-0.015013522
100	0x3fc7f616	1.5621974
101	0xbdf08ebc	-0.117459744
102	0xbf82ab0a	-1.0208447
103	0x3dcaeefc	0.09908864
104	0x3ea22264	0.31666863
105	0xbe16564d	-0.14681359
106	0xbdb60561	-0.08887745
107	0xbac49d67	-0.0015000523
108	0xbfa3f952	-1.2810462
109	0x3eea00a6	0.4570362
110	0xbfc91ceb	-1.571195
111	0xbf051439	-0.5198398
112	0x3f86a49b	1.0518984
113	0xbac054d8	-0.0014673723
114	0x3f50f06d	0.8161686
115	0xbf87770e	-1.0583208
116	0xbf94ed77	-1.1634969
117	0xbdacfa7a	-0.08446212
118	0xbe46094e	-0.19339487
119	0xbe1cb839	-0.1530465
120	0xbe22a2d9	-0.15882434
121	0x3d676def	0.056501325
122	0x3e1a6ed0	0.15081334
123	0xbcc88e73	-0.024481988
124	0xbd7e7893	-0.062126707
125	0x3d8f5cc8	0.070001185
126	0x3dc13d54	0.094355255
127	0xbe13285a	-0.14370862
128	0xbd9c936b	-0.07645305
129	0x3e0a9853	0.1353467
130	0x3d91f76d	0.07127271
131	0xbe18395a	-0.14865628
132	0x3b443179	0.0029936715
133	0xbdf856ba	-0.12125917
134	0xbdfdac8d	-0.12386427
135	0xbda2e1da	-0.07953234
136	0x3d1f092a	0.0388271
137	0xbdbd16e1	-0.092328794
138	0x3de16917	0.110063724
139	0xbe14ce3e	-0.145318
140	0xbc347b9e	-0.011015801
141	0x3e1449c4	0.14481264
142	0xbd134555	-0.035954792
143	0xbe337fdf	-0.17529248
144	0xbd90fb74	-0.07079211
145	0xbded0570	-0.11573303
146	0x3d52714b	0.051377576
147	0xbdef0f47	-0.11672836
148	0xbdd094a2	-0.101845995
149	0x3c9b9a86	0.018994581
150	0x3df40722	0.11915423
151	0xbdab7985	-0.083727874
152	0x3b5d898c	0.0033803908
153	0xbe270c20	-0.16313219
154	0x3df9a8d6	0.12190406
155	0xbe13366d	-0.1437623
156	0xbe135212	-0.14386776
157	0x3cbbf30f	0.022943048
158	0xbe7f4b3a	-0.2493104
159	0x3e0473f2	0.12934855
160	0xbe2dcdcb	-0.16973035
161	0x3d86af83	0.06576445
162	0xbec23c24	-0.3793651
163	0xbe478e99	-0.1948799
164	0xbe0bf797	-0.13668667
165	0xbcb97df6	-0.02264307
166	0xbe0ddd0b	-0.13853852
167	0xbe7b888c	-0.24563807
168	0x3dc35d50	0.09539282
169	0xbe22e18d	-0.15906353
170	0xbe17b677	-0.14815699
171	0xbc9e6454	-0.01933495
172	0xbe0fca7e	-0.14042088
173	0x3e206216	0.15662417
174	0xbe02c2b7	-0.1276959
175	0x3dfe9b8d	0.12432013
176	0x3d44b2a5	0.04802193
177	0x3d1a772f	0.03771132
178	0xbeef5ebb	-0.4675196
179	0x3d87b7f4	0.06626883
180	0xbecf262b	-0.40458807
181	0x3d7262f5	0.059176404
182	0xbcc8f7fe	-0.024532314
183	0x3e0c891b	0.13724177
184	0x3c79f03f	0.015255033
185	0x3e161989	0.14658178
186	0xbe9a9f1a	-0.3019951
187	0xbe8b4fa4	-0.27209198
188	0x3e7970d7	0.24359451
189	0xbe4c038d	-0.1992323
190	0xbeb4940c	-0.352692
191	0x3e1b5644	0.15169626
192	0x3e0813bd	0.1328878
193	0x3f8895df	1.0670737
194	0x3e975cbc	0.29562938
195	0xbdb4f85e	-0.08836435
196	0xbec9cfa4	-0.3941623
197	0x3e518719	0.20461692
198	0x3e6daca5	0.2321039
199	0xbe326e5f	-0.17424916
200	0x3d36a87b	0.04459427
201	0xbdbce16d	-0.09222684
202	0x3f845412	1.0338156
203	0xbe0695d4	-0.13143092
204	0xbcb03e96	-0.021514218
205	0x3d7d5990	0.06185299
206	0xbce3e1ba	-0.027817596
207	0x3ab53c2b	0.0013827136
208	0xbd0cc046	-0.034363054
209	0x3e1e4abc	0.15458196
210	0x3e03f7a5	0.12887438
211	0xbd267094	-0.040634707
212	0xbdf9f93d	-0.122057416
213	0x3e5db791	0.21652056
214	0xbf023c18	-0.50872946
215	0xbeaa9b63	-0.33321676
216	0xbdba1f21	-0.090879686
217	0x3f8d569b	1.1042055
218	0xbd74f4ed	-0.059803892
219	0x3f52aa5e	0.8229121
220	0xbe56d5b0	-0.20979953
221	0xbe7a6b20	-0.24454927
222	0x3d8b0292	0.067875996
223	0xbc11085a	-0.008852089
224	0x3c7cfe8d	0.015441549
225	0xbf1bcb2c	-0.6085689
226	0xbf923f60	-1.142559
227	0x3e0f37ba	0.13986102
228	0x3baba268	0.005237866
229	0xbf167859	-0.58777386
230	0xbde3b622	-0.111187235
231	0xbe8b7025	-0.27233997
232	0xbcf8a91a	-0.030354071
233	0x3ef8d388	0.48598886
234	0xbdb97f22	-0.09057452
235	0xbdbe2fed	-0.09286485
236	0xbf341124	-0.70338655
237	0x3edcf2be	0.43153948
238	0xbf080bbd	-0.5314291
239	0x3dd94cfd	0.106103875
240	0xbf43c556	-0.76472986
241	0x3d919e93	0.07110324
242	0xbeff6602	-0.49882513
243	0x3dd00a39	0.101582
244	0xbe04d632	-0.12972334
245	0xbe9947bf	-0.2993755
246	0xbe2179bb	-0.15769093
247	0xbe6f1563	-0.23348002
248	0x3d827c58	0.06371373
249	0x3e1b23d0	0.1515038
250	0x3e0e0d90	0.13872361
251	0xbc813409	-0.015771883
252	0xbf1bb351	-0.6082049
253	0x3ecac992	0.3960691
254	0xbd0cd31b	-0.034381013
255	0x3e12e40a	0.14344802

gnn.gnn_layers.0.res_connection.bias f4 [256]
0	0xbd2161a1	-0.039399747
1	0xbce4d1d2	-0.027932081
2	0x3d1eb897	0.038750257
3	0xbe4bd1b7	-0.19904219
4	0xbc58d193	-0.01323356
5	0xbe2c539f	-0.16828774
6	0x3df4f87a	0.11961456
7	0xbd00caf4	-0.03144355
8	0xbdc79010	-0.097442746
9	0xbe5fd98a	-0.21860328
10	0xbe5e5f5a	-0.21716061
11	0xbe970f49	-0.2950385
12	0xbda8428d	-0.082158186
13	0x3c9bf6ec	0.01903864
14	0xbe1fe4c6	-0.15614614
15	0xbdce54fc	-0.10074803
16	0xbeccdfef	-0.40014598
17	0xbe746608	-0.23867047
18	0xbe2b8026	-0.16748103
19	0xbe83359f	-0.25626847
20	0xbf04d488	-0.51886797
21	0xbcad941c	-0.021188788
22	0x3c91e293	0.017808234
23	0xbe63b02d	-0.22235174
24	0xbdfa3640	-0.122173786
25	0xbd7a7fd2	-0.061157055
26	0xbe0ea045	-0.13928325
27	0xbe3aa10f	-0.18225501
28	0xbe840c4d	-0.25790635
29	0xbe3467f9	-0.17617787
30	0xbd936e2a	-0.071987465
31	0xbe82b0ba	-0.25525457
32	0xbdc0ad65	-0.094080724
33	0xbe564aab	-0.20926921
34	0xbe84d409	-0.2594302
35	0xbd16d315	-0.036822397
36	0xbe33d315	-0.1756099
37	0xbe548352	-0.2075322
38	0xbce016ef	-0.027354686
39	0xbf13fc36	-0.5780672
40	0xbe8dc1ee	-0.2768702
41	0xbe5d952c	-0.21638936
42	0xbe155a67	-0.14585267
43	0xbdc55174	-0.096346766
44	0x3d95f600	0.073223114
45	0x3d6e55d4	0.05818732
46	0xbe50d00f	-0.20391868
47	0x3d242ba1	0.04008067
48	0xbdd6cf45	-0.10488752
49	0xbd6a2a44	-0.057169214
50	0xbe134f2e	-0.14385673
51	0x3cdd0af3	0.02698276
52	0xbdce8c18	-0.100853145
53	0xbe7fa012	-0.24963406
54	0xbe153cf4	-0.14574033
55	0xbc22b4d8	-0.009930812
56	0xbec8d415	-0.39224306
57	0xbe9891e6	-0.29798812
58	0xbdf610f0	-0.12014949
59	0x3c47edf9	0.012202733
60	0xbdd2be64	-0.102902204
61	0xbe959923	-0.29218397
62	0xbd58c75a	-0.05292449
63	0xbebe960e	-0.37223858
64	0xbe96f689	-0.29484966
65	0xbe450126	-0.1923872
66	0xbe4bac3b	-0.1988992
67	0x3c8330cd	0.016014481
68	0xbe811fdd	-0.25219622
69	0xbe5599c9	-0.20859446
70	0xbe19c11e	-0.15015075
71	0xbe4148ba	-0.18875399
72	0xbe464883	-0.19363599
73	0x3ef27af9	0.47359446
74	0xbdfb4b30	-0.122702
75	0xbdcd4181	-0.100222595
76	0x3cad1a90	0.02113083
77	0xbc240bd2	-0.010012584
78	0x3e47abd1	0.19499137
79	0xbe777485	-0.24165542
80	0xbe995837	-0.29950115
81	0xbe9da6a6	-0.30791205
82	0xbe285721	-0.16439487
83	0xbe3d5a16	-0.18491396
84	0x3d5a8de1	0.053357963
85	0xbe7bdb7f	-0.2459545
86	0xbe1fb5bc	-0.1559667
87	0x3d6648a4	0.05622162
88	0xbe813b70	-0.2524066
89	0xbe99450b	-0.29935488
90	0x3cf827e7	0.030292464
91	0xbe472e48	-0.19451249
92	0xbd1151bd	-0.035478342
93	0xbd6cee4f	-0.057844456
94	0xbec07cfd	-0.37595358
95	0xbddd5cca	-0.10808714
96	0xbba78b87	-0.0051130685
97	0xbde3e8bf	-0.11128377
98	0x3ca4180f	0.020031003
99	0xbe847c3c	-0.25876033
100	0xbda1b58c	-0.078959554
101	0xbdc6f36c	-0.09714398
102	0xbe348982	-0.1763058
103	0xbd9300cd	-0.07177887
104	0xbebda5a3	-0.37040433
105	0xbed1521d	-0.4088296
106	0x3dfa8a7e	0.122334465
107	0x3b8987aa	0.0041970806
108	0xbd493758	-0.049125046
109	0xbdd0a5a0	-0.101878405
110	0x3d952258	0.07281941
111	0x3debeb67	0.11519509
112	0xbca32867	-0.019916726
113	0xbe8f7019	-0.2801521
114	0xbe16cd0f	-0.14726661
115	0xbe1a9257	-0.15094887
116	0x3e33a5c4	0.17543703
117	0xbef98a63	-0.48738393
118	0xbe5a3067	-0.21307527
119	0xbe1a4d3e	-0.15068528
120	0xbd2774ea	-0.040882982
121	0xbe0b0650	-0.13576627
122	0xbd916798	-0.07099837
123	0xbe311487	-0.17292987
124	0x3e4704cd	0.19435425
125	0xba289be5	-0.00064319215
126	0xbe15abac	-0.14616269
127	0xbd3412d5	-0.043963272
128	0xbe133c47	-0.14378463
129	0x3d2624d5	0.04056247
130	0xbf050cfb	-0.5197293
131	0xbdc18f91	-0.09451211
132	0xbe5c279c	-0.21499485
133	0xbdb89519	-0.09012813
134	0x3de57e1b	0.11205693
135	0xbe6e201d	-0.23254438
136	0x3b520049	0.0032043627
137	0xbdbe762d	-0.09299884
138	0xbedbb6c2	-0.4291287
139	0xbe4b9e12	-0.19884518
140	0xbc637e18	-0.013885044
141	0xbca6aa08	-0.02034475
142	0xbe62361e	-0.22090957
143	0x3d2bb383	0.041919243
144	0x3d154325	0.036440987
145	0xbc3d0573	-0.011536944
146	0xbef2f7be	-0.47454637
147	0xbea21d03	-0.3166276
148	0x3cac8476	0.021059256
149	0xbf03f757	-0.51549286
150	0xbea9ddf5	-0.33177152
151	0x3e12f169	0.14349903
152	0xbea80ef5	-0.3282391
153	0xbd957975	-0.07298557
154	0x3e2f6778	0.17129314
155	0xbe579281	-0.2105198
156	0xbe6faba9	-0.23405327
157	0xbdf24919	-0.118303485
158	0xbd9b3c3a	-0.07579847
159	0x3cde43a5	0.027131865
160	0x3d9aa4d1	0.075509675
161	0xbe96e17c	-0.29468906
162	0xbdb18d3c	-0.086695164
163	0x3e6500bf	0.22363566
164	0xbe730e25	-0.23735864
165	0x3e2d8b8d	0.16947766
166	0xbe070b92	-0.13188007
167	0xbe410aa8	-0.18851721
168	0xbd2eaa52	-0.0426429
169	0x3b91bf5a	0.0044478597
170	0xbde4df7e	-0.1117544
171	0x3d954312	0.07288183
172	0xbde63fc9	-0.11242635
173	0xbdd1ecb3	-0.10250225
174	0x3e180035	0.14843829
175	0x3b93a5ef	0.004505865
176	0xbe80f2c2	-0.2518521
177	0xbe2a5cc5	-0.16636951
178	0xbe93a1bc	-0.2883433
179	0x3e54116f	0.20709775
180	0xbea82d4e	-0.32847065
181	0xbd65eb15	-0.056132395
182	0xbe95d444	-0.29263508
183	0xbdc3d720	-0.09562516
184	0xbe667b97	-0.22508083
185	0xbd89b9b3	-0.067248724
186	0xbe822fc1	-0.25427058
187	0x3dec31f6	0.11532967
188	0xbe12d8d9	-0.14340533
189	0x3dbc10c7	0.091828875
190	0xbdb40d5e	-0.08791612
191	0xbe410ee3	-0.18853335
192	0xbe8cb86d	-0.27484456
193	0xbe994e11	-0.29942372
194	0xbe6b2cc9	-0.22966303
195	0xbdd17236	-0.10226862
196	0x3e2f9b34	0.17149049
197	0xbc8bd922	-0.01707131
198	0xbe41c166	-0.18921432
199	0xbd74bbc6	-0.059749387
200	0xbed3d508	-0.41373467
201	0x3e2c0d3b	0.16801922
202	0xbe933699	-0.28752592
203	0xbd8d350a	-0.06894882
204	0xbe10bd51	-0.14134718
205	0xbd911b0e	-0.070852384
206	0xbe8c850a	-0.2744525
207	0xbe85c953	-0.2613016
208	0xbdfe1b59	-0.1240756
209	0xbe8c45c9	-0.27396992
210	0xbd1b4026	-0.037902974
211	0xbd4b86fd	-0.04968928
212	0xbedee276	-0.4353215
213	0xbddca42e	-0.10773502
214	0xbe2f004c	-0.17089957
215	0xbd21b614	-0.039480284
216	0x3de53fc0	0.111938
217	0x3bc13ebc	0.005897371
218	0xbeab3a10	-0.33442736
219	0xbd70d8fe	-0.05880069
220	0xbd4ff9a5	-0.05077519
221	0xbe1dc070	-0.1540544
222	0x3e22e8c9	0.15909113
223	0xbe665058	-0.22491586
224	0xbe19de7f	-0.15026282
225	0xbd031e68	-0.03201142
226	0xbe38c88b	-0.18045251
227	0xbe05596c	-0.13022393
228	0x3d0c20ac	0.034210846
229	0xbdd5127e	-0.10403918
230	0xbe9248ca	-0.2857116
231	0xbd8729c4	-0.06599763
232	0xbbbf0070	-0.0058289096
233	0xbe73c1f4	-0.23804456
234	0xbe658187	-0.22412692
235	0xbc070064	-0.008239839
236	0xbcbdf1cc	-0.023186587
237	0xbe8c9b65	-0.27462307
238	0xbe533424	-0.20625359
239	0xbe22bb61	-0.15891792
240	0xbe8e8df7	-0.27842686
241	0xbdaa5269	-0.083165
242	0xbe1bdbda	-0.15220585
243	0x390125fc	0.00012316549
244	0xbd95ea90	-0.0732013
245	0xbd93fdcf	-0.072261445
246	0xbe87c3e9	-0.26516655
247	0x3d072db1	0.03300256
248	0xbe7f3b20	-0.24924898
249	0xbd513282	-0.05107356
250	0xbef8175d	-0.48455325
251	0xbe9f16ec	-0.31072176
252	0xbe20b0d3	-0.15692453
253	0xbddd7998	-0.10814208
254	0x3bd3fcdf	0.0064693536
255	0xbd49e126	-0.049286984

gnn.gnn_layers.1.graph_conv.weight f4 [256, 256]
0	0x3e6ef37f	0.23335074
1	0x3e2ae503	0.16688924
2	0x3e78d7c9	0.24301066
3	0xbe479cc3	-0.19493394
4	0xbf708d99	-0.9396606
5	0xbe88b966	-0.26703948
6	0x3d9834c0	0.07431936
7	0x3e2f004a	0.17089954
8	0xbcfad9dc	-0.030621462
9	0x3e18718c	0.14887065
10	0xbe1493ae	-0.1450946
11	0xbe2e4bd8	-0.1702112
12	0x3d3d3d2d	0.04620092
13	0xbdc09066	-0.09402542
14	0xbc6f56f1	-0.014608131
15	0x3e018209	0.1264726
16	0xbdfe473f	-0.12415933
17	0xbddf286e	-0.10896383
18	0xbe33b40d	-0.17549153
19	0xbe2da149	-0.16956057
20	0x3e0756e9	0.13216747
21	0x3e0fe438	0.14051902
22	0x3dce2110	0.100649
23	0x3e10f48b	0.14155786
24	0x3d5dcad6	0.054148518
25	0xbcb2543a	-0.021768678
26	0xbde8c828	-0.11366302
27	0x3c58a1b2	0.013222145
28	0xbdc4947d	-0.095986344
29	0xbe3a7a9b	-0.18210833
30	0xbcbbd3db	-0.022928169
31	0xbe303c5a	-0.17210522
32	0xbee72daa	-0.45152026
33	0xbd9a2c3d	-0.07527969
34	0x3e64cc51	0.22343566
35	0xbd1a35ba	-0.037648894
36	0xbd985750	-0.074385285
37	0xbdaf911a	-0.08572598
38	0xbcfdbbc2	-0.030973319
39	0xbdfd2395	-0.12360302
40	0xbd714497	-0.058903303
41	0xbe3e7de3	-0.1860271
42	0xbb32f90b	-0.0027309086
43	0xbd064959	-0.032784794
44	0xbd7a37eb	-0.061088484
45	0x3e29ad01	0.16569902
46	0x3e4878d7	0.19577347
47	0x3e6087ee	0.21926853
48	0x394b5d51	0.00019394352
49	0xbdbf1d23	-0.09331729
50	0xbe509b3b	-0.20371716
51	0x3c6ad7f3	0.014333713
52	0xbda12e42	-0.07870151
53	0x3e8670d5	0.2625796
54	0x3e1a3709	0.15060057
55	0xbeddd192	-0.43323952
56	0x3d6b0ba6	0.057384156
57	0xbd23b8bf	-0.03997111
58	0xbdb8d48d	-0.09024916
59	0x3e598d30	0.21245265
60	0x3ced1cfb	0.028944483
61	0x3d7ffa16	0.06249436
62	0x3e0300e4	0.12793308
63	0xbcf18ae8	-0.029485181
64	0xbe64700f	-0.22308372
65	0xbdeabce2	-0.11461808
66	0xbda53d40	-0.08068323
67	0x3da2d9a4	0.07951668
68	0x3e397218	0.1810993
69	0x3d4093f8	0.047016114
70	0x3caacd94	0.02084998
71	0xbda83d0d	-0.082147695
72	0x3d702589	0.058629546
73	0xbe328ff3	-0.17437725
74	0xbd81b51a	-0.063333705
75	0xbe07bf24	-0.13256508
76	0x3e2dff39	0.16991891
77	0x3e5a5a88	0.21323597
78	0xbd9df42a	-0.07712586
79	0x3d23cd3e	0.039990656
80	0xbdca00c0	-0.09863424
81	0xbe087827	-0.13327084
82	0xbdd90dc0	-0.10598326
83	0xbdc99563	-0.098429464
84	0x3e94af61	0.29040053
85	0xbe2a03d5	-0.16603024
86	0x3df585a6	0.11988382
87	0x3daf1805	0.08549503
88	0xbdcd71a6	-0.10031442
89	0xbdea68b6	-0.11445753
90	0x3e0914f3	0.13386898
91	0xbd2a2632	-0.041540332
92	0xbde3552b	-0.11100229
93	0x3d22215e	0.039582603
94	0x3d625406	0.055255912
95	0xbdd1c4e6	-0.102426335
96	0xbd8bcb49	-0.06825883
97	0x3ed9352e	0.42423385
98	0x3e3cf668	0.18453372
99	0xbde7943b	-0.113075696
100	0xbe0f5355	-0.13996632
101	0xbe6ca754	-0.23110706
102	0x3e5d2110	0.21594644
103	0xbc9fe64a	-0.01951899
104	0xbdc81a59	-0.097706504
105	0xbaaa3df5	-0.0012988435
106	0x3e2f6a00	0.1713028
107	0x3cbf7f2b	0.023376068
108	0xbd528ccf	-0.051403817
109	0xbcd94a2a	-0.026524622
110	0x3f163bf8	0.58685255
111	0x3c469e91	0.012122766
112	0xbe33bb97	-0.17552029
113	0xbddf66c8	-0.10908276
114	0xbe1b279a	-0.15151826
115	0xbea31df1	-0.3185878
116	0xbe3f5c5c	-0.18687576
117	0xbe560757	-0.20901237
118	0xbe017acb	-0.12644498
119	0x3bd07576	0.0063616587
120	0xbd987500	-0.07444191
121	0xbdf7ac24	-0.1209338
122	0x3e84305d	0.25818148
123	0xbe85b641	-0.2611561
124	0xbd6a7b02	-0.057246216
125	0x3d7e1638	0.06203291
126	0xbe2fc40c	-0.1716463
127	0xbdc58f4e	-0.09646474
128	0xbe22fc3b	-0.15916531
129	0x3b1b3aee	0.0023686248
130	0x3f0dac60	0.5534115
131	0x3c288519	0.010285639
132	0x3d171026	0.036880635
133	0xbdfe8e7c	-0.124295205
134	0xbd70d4e2	-0.05879677
135	0xbdd05551	-0.10172523
136	0x3e10d339	0.14143075
137	0xbe114511	-0.14186503
138	0x3d6cb0dd	0.057785857
139	0x3e529f95	0.20568688
140	0xbe285544	-0.16438776
141	0x3b92666e	0.004467777
142	0x3da14bd6	0.07875793
143	0xbe2ca603	-0.16860203
144	0x3dce72e4	0.100805074
145	0xbda5c7d3	-0.08094754
146	0x3d0db312	0.034594603
147	0x3f871ec1	1.055626
148	0x3e316171	0.17322327
149	0xbe5ba46b	-0.21449439
150	0xbcbcb371	-0.023034783
151	0xbcab5d42	-0.020918492
152	0x3dfaa555	0.12238566
153	0x3e2bf18a	0.16791359
154	0xbd3e90b1	-0.046524707
155	0xbde9c8d4	-0.11415258
156	0xbdcfd8f8	-0.101488054
157	0xbdefe047	-0.117126994
158	0x3cd436c7	0.025905026
159	0xbe0ec8c7	-0.13943778
160	0xbd658c91	-0.056042258
161	0xbdfcf1f4	-0.123508364
162	0x3dc0c218	0.094120204
163	0x3d98f5b9	0.07468743
164	0xbf1ef034	-0.6208527
165	0xbda2e2de	-0.07953428
166	0x3deb4845	0.11488394
167	0xbd7b5710	-0.061362326
168	0xbd81e804	-0.063430816
169	0xbdad9beb	-0.084770046
170	0x3e935d4f	0.28782126
171	0x3d75edd0	0.06004125
172	0x3e0d53f6	0.1380156
173	0x3e2f13eb	0.17097442
174	0xbe05db74	-0.13071996
175	0xbd3c85ae	-0.046025924
176	0xbe1877c8	-0.14889443
177	0xbe22dbad	-0.15904112
178	0x3e29ed1e	0.1659436
179	0xbe562ab6	-0.2091473
180	0xbe449f17	-0.19201313
181	0x3c56b64c	0.013104986
182	0xc00ca040	-2.197281
183	0xbdfdd9ee	-0.123950824
184	0xbe36f111	-0.17865397
185	0x3e434c43	0.1907206
186	0xbda3c81b	-0.079971515
187	0xbd6c5800	-0.05770111
188	0x3db6608e	0.08905135
189	0x3c32cae2	0.010912629
190	0xbd6b99be	-0.057519667
191	0x3e133894	0.14377052
192	0xbe20bc05	-0.15696724
193	0xbc940d77	-0.018072827
194	0xbd2ba4f5	-0.041905362
195	0xbddd3173	-0.10800447
196	0x3ecbcfb2	0.39806896
197	0x3dd0b344	0.10190442
198	0xbdf95c1a	-0.1217577
199	0x3ef6f24c	0.48231733
200	0x3da15a2d	0.07878528
201	0x3da80656	0.082043335
202	0xbe163ae9	-0.1467091
203	0xbe48a81d	-0.1959538
204	0xbe022a25	-0.1271139
205	0x3dfc5e29	0.12322647
206	0x3c8111a1	0.015755476
207	0xbd656a12	-0.05600936
208	0xbe5626a3	-0.20913176
209	0xbe61e4f1	-0.2205999
210	0xbe59d879	-0.21273984
211	0xbdb51650	-0.088421464
212	0x3d7e0c63	0.06202353
213	0x3e3ed1a8	0.18634665
214	0x3cdf9b2e	0.027295675
215	0xbe37aaae	-0.17936203
216	0x3e024f8c	0.12725657
217	0x3d58f0ec	0.052964136
218	0xbda14b56	-0.07875697
219	0x3e088123	0.13330512
220	0x3e1dd932	0.15414885
221	0x3c872687	0.016497863
222	0x3dc9638b	0.098334394
223	0xbe590dd9	-0.21196689
224	0x3e196689	0.1498052
225	0xbd92d3fc	-0.07169339
226	0xbe3b6189	-0.18298925
227	0x3eb8c65c	0.36088836
228	0x3dad974d	0.08476124
229	0x3db84f65	0.08999518
230	0x3cf6ac85	0.03011156
231	0xbd1f5c0b	-0.03890614
232	0xbde90cf4	-0.11379424
233	0x3dd6ccbd	0.104882695
234	0xbeb08244	-0.34474385
235	0xbcb54342	-0.022126798
236	0x3e2cd93e	0.16879746
237	0xbdfa514c	-0.122225374
238	0xbe524aad	-0.20536299
239	0x3dc1517d	0.09439371
240	0xbe574373	-0.21021824
241	0x3cecc945	0.028904567
242	0x3e62d0a6	0.22149906
243	0x3e630aae	0.22172043
244	0x3ce88495	0.028383533
245	0x3e050d3d	0.12993331
246	0x3ebf55df	0.37370202
247	0x3e00e501	0.12587358
248	0xbd9f11c6	-0.07767062
249	0x3db6e60b	0.08930596
250	0x3f2cda54	0.6752064
251	0xbcef0f55	-0.029182116
252	0xbdcdc04c	-0.10046443
253	0xbdcd0720	-0.100111246
254	0x3e2402c6	0.16016683
255	0x3ec33bdb	0.38131604

gnn.gnn_layers.1.graph_conv.bias f4 [256]
0	0x3dc47d10	0.09594166
1	0x3e3bf885	0.18356521
2	0x3df9a32d	0.121893264
3	0xbdf633c9	-0.12021596
4	0xbebb8b24	-0.36629593
5	0xbd4adf2b	-0.049529236
6	0x3d9572ff	0.072973244
7	0x3dbe95b2	0.09305896
8	0xbdf5fa56	-0.120106384
9	0xbb090d03	-0.0020912297
10	0xbdf5f6eb	-0.120099865
11	0xbdf5fbac	-0.12010893
12	0xbdac5bbd	-0.08415935
13	0xbdf5fb79	-0.12010855
14	0x3db0ecfb	0.086389504
15	0xbd8c0183	-0.06836226
16	0xbe054258	-0.1301359
17	0xbdf5fc11	-0.120109685
18	0xbdf5f6f5	-0.12009994
19	0xbddb4b6f	-0.10707747
20	0xbaf893c2	-0.0018964934
21	0xbdf5fc11	-0.120109685
22	0x3dcadf5a	0.09905882
23	0x3e122092	0.14270237
24	0x3db67b7a	0.0891027
25	0xbdf5fc0f	-0.12010967
26	0xbdf5fc27	-0.12010985
27	0x3e0c3be3	0.1369472
28	0x3e3e8c8d	0.18608303
29	0x3bc9305c	0.006139798
30	0xbe00113a	-0.12506571
31	0xbdf5fc04	-0.12010959
32	0xbd9f5820	-0.077804804
33	0xbdf5fc25	-0.120109834
34	0xbdf5fc02	-0.12010957
35	0x3e38a15e	0.18030307
36	0xbdf5f530	-0.120096564
37	0xbd4fb307	-0.050707843
38	0xbdf5fc24	-0.12010983
39	0xbdf5fbef	-0.12010943
40	0xbdf5fbec	-0.12010941
41	0xbdf8787e	-0.12132357
42	0xbea51305	-0.32241073
43	0xbdf5fba5	-0.12010888
44	0xbe163a96	-0.14670786
45	0x3d9fe4b8	0.078072965
46	0xbdf611b9	-0.12015099
47	0x3d78cee7	0.060744192
48	0x3da75bf9	0.08171839
49	0xbdeadc9e	-0.11467861
50	0xbdf5fbac	-0.12010893
51	0x3d5cac44	0.053875223
52	0xbe495cca	-0.19664302
53	0x3cb33153	0.021874106
54	0x3d9fd2c6	0.07803874
55	0x3e28b6fc	0.16476053
56	0x3bedf0f6	0.007261391
57	0xbdf5fbf9	-0.120109506
58	0xbdbc55e4	-0.0919607
59	0x3e3be306	0.18348321
60	0x3d49ab07	0.04923537
61	0x3d3462de	0.0440396
62	0x3dc68203	0.096927665
63	0x3e5738fa	0.21017829
64	0xbdf5fc10	-0.12010968
65	0x3d476199	0.04867706
66	0xbe25f025	-0.16204889
67	0x3cb052ed	0.021523917
68	0x3dc39dd0	0.09551585
69	0x3db371c1	0.08761931
70	0x3db7652d	0.089548446
71	0xbdf5fc12	-0.12010969
72	0x3d2d5de8	0.042325884
73	0xbe0941fe	-0.1340408
74	0xbe2107ef	-0.15725683
75	0xbdf5fc2f	-0.12010991
76	0x3df9d87b	0.121994935
77	0x3d8c5b5d	0.06853364
78	0xbdf5fbba	-0.12010904
79	0x3da79a0f	0.08183681
80	0xbe82e1d4	-0.25562918
81	0xbe68d411	-0.22737147
82	0xbe479f5c	-0.19494385
83	0xbdf5fc18	-0.12010974
84	0x3d27e9d7	0.04099449
85	0xbdf5fc18	-0.12010974
86	0x3e6dce09	0.23223127
87	0xbdf5fa6d	-0.120106556
88	0xbdf5fc25	-0.120109834
89	0xbdf5f273	-0.12009134
90	0x3dd9b5e0	0.10630393
91	0x3d8bc090	0.06823838
92	0xbdf5fb6a	-0.12010844
93	0x3e74ec3f	0.23918246
94	0xbe3c2b50	-0.18375897
95	0x3c36baae	0.011152906
96	0xbdf5f308	-0.12009245
97	0xbf651a94	-0.8949368
98	0xbdf5ef80	-0.120085716
99	0xbdf5fc19	-0.120109744
100	0xbdf5fbda	-0.120109275
101	0xbe11301d	-0.1417851
102	0xbd803265	-0.06259612
103	0xbdbd06fe	-0.09229849
104	0xbdf5fc0a	-0.12010963
105	0x3eac795e	0.33686346
106	0x3db3f2fc	0.0878658
107	0x3e00c819	0.12576331
108	0xbdf5fc2d	-0.12010989
109	0x3cf75912	0.03019384
110	0x3e140c2f	0.14457773
111	0x3bc751dc	0.0060827564
112	0xbdf5fc26	-0.12010984
113	0xbdf5fbc1	-0.12010909
114	0xbdf5fad3	-0.120107315
115	0x3e16289a	0.14663926
116	0xbdf5fbd2	-0.120109215
117	0x3e6a8395	0.22901757
118	0xbbdf5bcd	-0.0068163634
119	0x3db523a8	0.088446915
120	0x3df06e6a	0.1173981
121	0xbdf5fc31	-0.12010992
122	0xbd6e9d6d	-0.0582556
123	0xbf164af4	-0.5870812
124	0xbdf5fb2b	-0.12010797
125	0xbe10061e	-0.14064834
126	0xbdfd817d	-0.123782136
127	0x3b253b40	0.0025212318
128	0xbdf5fbb8	-0.12010902
129	0x3d90c3a1	0.07068563
130	0x3e126d4b	0.14299504
131	0xbcaa8027	-0.02081306
132	0x3dafdeed	0.085874416
133	0xbdf5fbe4	-0.12010935
134	0xbe1317d8	-0.14364564
135	0x3d88cd00	0.06679726
136	0x3e4d595d	0.2005362
137	0xbe030b63	-0.12797312
138	0xbe0d7180	-0.13812828
139	0xbc238c71	-0.009982214
140	0xbdf5fc09	-0.120109625
141	0xbd8389ae	-0.06422745
142	0x3e1d1394	0.153395
143	0xbdf5fa64	-0.12010649
144	0x3e02915e	0.12750766
145	0xbdf5f8bb	-0.12010332
146	0xbb8cbdfc	-0.004295109
147	0x3d5c0d66	0.053723715
148	0x3d8fd276	0.07022564
149	0xbdf5fc2a	-0.12010987
150	0xbdf5fac9	-0.12010724
151	0xbdf5fc24	-0.12010983
152	0x3d2e4d7f	0.042554375
153	0x3dbc0811	0.09181226
154	0xbdbf2833	-0.09333839
155	0xbdf5fb73	-0.12010851
156	0xbde33805	-0.11094669
157	0xbe156e11	-0.14592768
158	0xbdf5fb8f	-0.120108716
159	0xbdf5fb42	-0.12010814
160	0xbdf5e5a6	-0.120066926
161	0xbdf5fba4	-0.12010887
162	0x3e8cc9e7	0.2749779
163	0x3dfbe641	0.12299777
164	0xbe7ded9d	-0.24797674
165	0xbdf5fc2a	-0.12010987
166	0x3d9ee702	0.07758905
167	0xbddcc287	-0.10779291
168	0xbdf5f9f9	-0.12010569
169	0xbe61073e	-0.21975419
170	0xbdd27462	-0.102761045
171	0xbde38b41	-0.11110545
172	0xbd0142f9	-0.03155801
173	0x3dd07d6f	0.101801746
174	0xbe02fae9	-0.12791027
175	0xbdf5fc29	-0.12010986
176	0xbdf5fc38	-0.120109975
177	0xbdfc7b9d	-0.12328265
178	0x3d3dc3ae	0.046329193
179	0xbe71c3bb	-0.23609821
180	0xbdf6def4	-0.12054244
181	0x3c275fe9	0.010215738
182	0x3f130c42	0.5744058
183	0xbe1a70ca	-0.15082088
184	0xbdb21884	-0.08696082
185	0x3e1396c2	0.14412978
186	0xbdf5fb9f	-0.120108835
187	0xbe821fd7	-0.25414917
188	0xbb8f84d6	-0.004379849
189	0x3d8c7eb9	0.06860108
190	0xbdf5fc14	-0.12010971
191	0x3d1eeea7	0.038801815
192	0xbe16795b	-0.14694731
193	0x3da5aae4	0.080892354
194	0xbdf5d164	-0.12002829
195	0xbdf5fc2f	-0.12010991
196	0x3dc739e5	0.097278394
197	0x3d8981d6	0.06714217
198	0xbdf5fc2b	-0.12010988
199	0xbf007f97	-0.50194687
200	0x3da698bb	0.081346
201	0x3dc2206d	0.09478841
202	0xbdf6e80a	-0.12055977
203	0xbdffd727	-0.12492209
204	0x3c0d089e	0.0086080115
205	0x3d6ae985	0.057351608
206	0xbd8778ab	-0.066148125
207	0xbdf5fc30	-0.120109916
208	0xbdf5f98c	-0.12010488
209	0xbe99b6a6	-0.30022162
210	0xbdf8eb0e	-0.12154208
211	0xbdf5fba6	-0.12010889
212	0x3df52742	0.119703785
213	0xbe050f9f	-0.1299424
214	0xbccac492	-0.024751935
215	0x3cea1261	0.028573217
216	0x3d8fad4e	0.07015477
217	0x3dba2dfd	0.09090803
218	0xbdf5f48f	-0.120095365
219	0x3dabdff0	0.08392322
220	0x3c5716e3	0.013128015
221	0xbe37faf2	-0.17966822
222	0x3d78fac1	0.060786013
223	0xbdf5fba7	-0.120108895
224	0x3dd503ca	0.10401113
225	0xbdf735b6	-0.120707914
226	0xbe449923	-0.19199042
227	0xbe4a598c	-0.19760722
228	0x3dc69d31	0.09697951
229	0xbdfc4844	-0.12318471
230	0x3d3c5476	0.045978986
231	0x3db12885	0.086503066
232	0xbdf5fbe9	-0.12010939
233	0x3dc6081d	0.09669516
234	0xbe9ff4b9	-0.31241396
235	0xbdf97177	-0.12179845
236	0x3bf8a48d	0.0075879754
237	0xbdf5b726	-0.119978234
238	0xbe45ccdb	-0.19316427
239	0x3e0d4c0f	0.13798545
240	0xbdf5fc2e	-0.1201099
241	0xbeb8ac8e	-0.3606915
242	0xbe85000c	-0.25976598
243	0x3e8af9a9	0.271436
244	0xbe293935	-0.16525729
245	0x3db71cae	0.08941017
246	0x3ea75038	0.3267839
247	0x3e56c4e5	0.20973547
248	0xbdf5fc2e	-0.1201099
249	0x3d82a8af	0.0637983
250	0x3e1aa227	0.15100919
251	0xbdf5fb5f	-0.12010836
252	0xbf1152c2	-0.56766903
253	0xbdf5fc2d	-0.12010989
254	0x3eb19aa7	0.34688303
255	0x3e2861b0	0.16443515

gnn.gnn_layers.1.res_connection.weight f4 [256, 256]
0	0xbd988fe7	-0.07449322
1	0x3df1b57f	0.11802196
2	0xbdf25d06	-0.11834149
3	0x3dcbabd8	0.09944886
4	0xbe7ba662	-0.24575189
5	0x3dbbf50f	0.091776006
6	0x3e00138c	0.12507457
7	0x3df1420a	0.11780174
8	0xbc0e7023	-0.008693728
9	0x3f00cb08	0.503098
10	0x3da1b886	0.07896523
11	0x3da9a9f0	0.08284366
12	0x3de18143	0.11010983
13	0x3d96f024	0.07370022
14	0x3ea1d01d	0.3160409
15	0x3e32f888	0.1747762
16	0x3e3a37be	0.18185326
17	0xbd0f06cd	-0.034918595
18	0x3ebe014e	0.3711037
19	0xbd8d0c1b	-0.068870746
20	0x3d8fa143	0.0701318
21	0x3dc99d7c	0.09844491
22	0x3e3c59ff	0.18393706
23	0x3e18c726	0.14919719
24	0x3de746a3	0.1129277
25	0x3e1fb119	0.15594901
26	0x3e083180	0.13300133
27	0x3de1c936	0.11024706
28	0xbe9f6e19	-0.31138685
29	0x3e3d0d8f	0.18462203
30	0x3ddc8674	0.107678324
31	0x3e2b8210	0.16748834
32	0x3d8456b7	0.06461852
33	0x3e0eacf0	0.13933158
34	0x3d630c4b	0.055431645
35	0xbd0754ee	-0.03303998
36	0xbe2c6bd6	-0.16838011
37	0x3e2e127e	0.16999242
38	0x3d625a70	0.05526203
39	0x3e2a6a6d	0.1664216
40	0x3d9eb2c7	0.07748943
41	0xbf3b6a3c	-0.73208976
42	0x3de95138	0.11392444
43	0x3cb7ff51	0.022460612
44	0x3e873e4a	0.2641471
45	0xbd554ed1	-0.05207712
46	0xbda606b6	-0.08106749
47	0x3e2d99d9	0.1695322
48	0xbf47bf8e	-0.78026664
49	0x3e889cca	0.2668212
50	0x3ef42908	0.47687554
51	0x3d714129	0.058900032
52	0x3e382538	0.17982948
53	0x3e3880c7	0.18017875
54	0x3e292e4a	0.16521564
55	0x3da4dfd6	0.08050506
56	0xbe8846cc	-0.26616514
57	0x3e2e20ec	0.17004746
58	0x3d907335	0.07053224
59	0x3e462721	0.19350864
60	0xbddc098d	-0.10744009
61	0x3e2f386c	0.17111367
62	0xbc6b299a	-0.01435318
63	0xbec27d5d	-0.3798627
64	0x3d4b15ac	0.049581215
65	0x3df6be83	0.12048056
66	0x3e2d0d54	0.16899616
67	0xbe55f158	-0.20892847
68	0xba312495	-0.00067574653
69	0xbe3a869a	-0.18215409
70	0x3e33571e	0.17513701
71	0x3c881a22	0.016614024
72	0x3e1adb9f	0.15122841
73	0xbe870707	-0.2637255
74	0xbdd4d9ac	-0.1039308
75	0x3dbe7a1a	0.09300633
76	0x3d9f66f1	0.077833064
77	0xbf8b6e01	-1.0892946
78	0xbeae32df	-0.34023187
79	0x3d987439	0.07444043
80	0x3ca29c07	0.01984979
81	0xbcd9bcb0	-0.026579231
82	0x3d9fa62e	0.07795368
83	0x3e34b559	0.17647304
84	0x3da05ca5	0.078301705
85	0xbdb4968f	-0.08817779
86	0x3e4518ce	0.19247743
87	0x3cbbb1a1	0.022911849
88	0x3e4d8a85	0.20072372
89	0x3ac92a1a	0.001534763
90	0x3e8fb719	0.2806938
91	0x3e19a24f	0.15003322
92	0x3dd9ee63	0.10641172
93	0x3e0afd99	0.13573302
94	0xbed42812	-0.4143682
95	0xbd667988	-0.056268245
96	0x3b931fd2	0.0044898773
97	0x3e0318ed	0.12802477
98	0x3dae3b49	0.085074015
99	0x3dc572d9	0.09641046
100	0x3dee561c	0.11637518
101	0x3ea48d5a	0.32139093
102	0xbd4550a1	-0.048172597
103	0xbec3cf19	-0.3824394
104	0xbdf70c63	-0.120629095
105	0x3df3fb63	0.119131826
106	0xbf0f86fa	-0.5606533
107	0x3e1b0591	0.15138842
108	0x3e39490e	0.18094274
109	0x3df23c3b	0.11827894
110	0xbe9c9d09	-0.30588558
111	0x3d50354d	0.05083208
112	0x3c50465e	0.012712089
113	0x3dacb1aa	0.08432324
114	0xbdb5fdd3	-0.08886304
115	0x3e38266a	0.17983404
116	0x3e0c8984	0.13724333
117	0x3e27bab6	0.16379818
118	0x3e08dd6c	0.13365716
119	0x3ef1e048	0.47241426
120	0x3e3a40e3	0.18188815
121	0x3e6f0e8a	0.2334539
122	0x3df5cebd	0.12002323
123	0x3dce0d4f	0.10061132
124	0xbd90a14f	-0.07062017
125	0x3d28d17c	0.041215405
126	0x3dd80739	0.105482526
127	0x3df71a4b	0.12065562
128	0x3e449613	0.19197874
129	0xbd57834a	-0.05261544
130	0x3dfb1907	0.12260633
131	0x3cb64d8e	0.022253778
132	0x3e099779	0.13436688
133	0x3e1f40a9	0.1555201
134	0xbece1850	-0.40252924
135	0x3ea1fef6	0.31639832
136	0xbdd84508	-0.10560042
137	0x3d73bc6f	0.059505876
138	0x3e7bca60	0.24588919
139	0x3e0e052d	0.13869162
140	0x3e250238	0.16114128
141	0xbe81089f	-0.2520189
142	0x3dae8978	0.08522314
143	0x3e33acf1	0.1754644
144	0xbc6ba4cf	-0.014382555
145	0x3e10707d	0.14105411
146	0xbc99ad4d	-0.018759394
147	0x3dbb2dc8	0.091395915
148	0xbdd83c6d	-0.105584
149	0x3dbae737	0.09126132
150	0x3e30b3b8	0.17256057
151	0xbe3d0ed1	-0.18462683
152	0x3e156a37	0.14591299
153	0x3cdb11f0	0.026741952
154	0x3d9b3b03	0.07579615
155	0x3df04941	0.11732722
156	0x3db55e49	0.08855874
157	0x3dc07c60	0.09398723
158	0x3da86f29	0.08224327
159	0x3e14ef13	0.14544325
160	0x3e127b13	0.14304762
161	0xbe15f8dc	-0.14645714
162	0x3e052560	0.13002539
163	0xbd07a2b3	-0.033114146
164	0xbed3b775	-0.41350904
165	0x3e3a377d	0.1818523
166	0x3e1278a8	0.14303839
167	0x3db81101	0.08987618
168	0xbf3f629d	-0.74759847
169	0xbdbab243	-0.09116032
170	0x3dc2275b	0.09480163
171	0x3dfd26bf	0.12360906
172	0x3e647d21	0.22313358
173	0x3a904db9	0.0011009491
174	0x3dcdb26e	0.100437984
175	0x3e2186a7	0.15774022
176	0xbe793fc5	-0.24340732
177	0x3db17ab4	0.08665982
178	0x3db230e5	0.08700732
179	0xbe2c45c2	-0.16823485
180	0xbcc8454d	-0.024447108
181	0xbd8df891	-0.06932176
182	0x3e3676cc	0.17818755
183	0x3dfc6b99	0.1232521
184	0xbf45fb26	-0.7733635
185	0x3ec44ba7	0.38338968
186	0x3e77ad8b	0.24187295
187	0x3e192dc9	0.14958872
188	0x3de835dc	0.11338398
189	0x3eb6b849	0.35687473
190	0xbd9d60e0	-0.07684493
191	0xbe3075d2	-0.17232445
192	0x3e23f3fa	0.16011038
193	0x3d3b0457	0.045658436
194	0x3e0736a4	0.13204437
195	0x3c014851	0.007890777
196	0x3e066fc9	0.1312858
197	0x3e2613bc	0.16218466
198	0xbe7f14a3	-0.24910216
199	0xbe4af01a	-0.19818154
200	0xbd650ac9	-0.05591849
201	0x3df1cc5e	0.11806558
202	0x3e0f62f8	0.14002597
203	0x3da44925	0.08021764
204	0x3cb450e9	0.022011237
205	0xbe55bbf9	-0.20872487
206	0xbc35f341	-0.0111053595
207	0x3dda9f6c	0.106749386
208	0xbf4b8677	-0.7950205
209	0x3dc4fe73	0.09618845
210	0x3daff453	0.08591523
211	0x3dad6085	0.08465675
212	0xbc419691	-0.011815683
213	0xbe71a5a5	-0.23598345
214	0xbd88319e	-0.06650089
215	0x3daf5b97	0.08562391
216	0x3e6f9241	0.23395635
217	0x3d61b1c8	0.055101186
218	0x3e98a2f2	0.29811817
219	0xbe5efa4b	-0.21775167
220	0x3e2304ec	0.15919846
221	0x3da78e55	0.081814446
222	0xbdc9ff6a	-0.098631695
223	0x3e01f4c2	0.12691024
224	0x3e3a6a5c	0.18204635
225	0x3e017dc0	0.12645626
226	0x3f38887c	0.7208326
227	0x3b77adee	0.003779288
228	0xbd44ec6c	-0.048077032
229	0x3ed0f4af	0.4081168
230	0x3e0ca266	0.13733825
231	0x3d81841f	0.06324028
232	0xbe7d0aea	-0.24711195
233	0x3de366f1	0.11103619
234	0x3dac0660	0.083996534
235	0x3d54a9b8	0.05191967
236	0x3eaa2508	0.33231378
237	0x3e189f69	0.1490456
238	0x3db59b56	0.088675186
239	0xbe9a7a96	-0.3017165
240	0x3d4036d5	0.046927292
241	0x3d825064	0.063629895
242	0x3e30dd6e	0.17271969
243	0x3db93ae6	0.09044437
244	0xbd192a14	-0.037393644
245	0x3dd27780	0.10276699
246	0x3dda7595	0.10666958
247	0xbee56ce0	-0.44809628
248	0xbd1cc0f4	-0.038269952
249	0x3e616c0f	0.22013877
250	0x3df27d8b	0.11840352
251	0xbc5b8551	-0.013398484
252	0x3db08098	0.08618277
253	0x3d5d38f8	0.054009408
254	0x3dd5577e	0.104170784
255	0x3e01dcf4	0.12681943
